project/api/storage/SNNTorchRegressor_LinearDataset.pt (torch, 79130 bytes, 10 tensors)

weight f4 [128, 1]
00000000: 30a7 09bd c8a8 d3bd e837 6d3f d075 753f
00000010: 0b10 0cbf a84b 7f3f 102e 5f3e ed95 24bf
00000020: 1c03 113f 5275 3cbf 568b 703f c989 28bf
00000030: cc90 943e 6ee8 a73e c569 733e b410 553f
00000040: b38a cbbe 3186 cdbe f2ae 60bf 5893 68bc
00000050: 8b26 f6be 673f 903c a4a1 33be 6340 a33e
00000060: a668 5f3f 4baa 983e 2668 9abe 0ab2 03bf
00000070: 7dcd 67bf e310 553f 8566 28be c267 5e3e
00000080: c66c 603c a835 1fbf f6bb 073f 881d 143f
00000090: 5753 8f3d 0462 09bf 4386 e5be 4e36 1e3d
000000a0: 3136 0dbf 2243 14bf 935d 2cbe 1267 85be
000000b0: 011a 913e 440f 94be 2ede 1dbe b47e cebe
000000c0: 2543 69bf b81b 573f 2dd1 573e 4dfa 683f
000000d0: 6d65 18be b99e 60be cbd0 6bbf 9005 bcbe
000000e0: 05ab 213f af7d 78bf 2ec6 adbe be31 1b3f
000000f0: aef0 093f fe1e c13e 9fbd 31be d841 83bd
00000100: 7a50 5cbe 0fb6 abbe db91 e23e 2710 bbbe
00000110: 3671 0abf 6fae 7d3e ffc2 3dbf 587f 59be
00000120: 0520 0a3f 7f35 ca3e d768 593f 51c3 34bf
00000130: 2b3f 153d e599 90be 7073 15bf bf7a 0bbf
00000140: 6c52 693e 37d7 d43d fc77 0abf 9fdd 38bf
00000150: 0781 4ebf 321d 843f 9167 2fbe 3fd7 52be
00000160: 982f aabe fadd 05bf caf2 6dbf 5d33 11bf
00000170: 3aca 203f 8515 7a3e f134 c6be 26af c6be
00000180: 6c82 293f 5bff 3f3f 2b05 7a3f 92d8 a23e
00000190: 9821 e83e 71d5 56bd b799 0ebf 7557 7abf
000001a0: 19d0 1a3f 5466 30be e31e e03e 75ea a13d
000001b0: 0d84 72bf 1740 eebe c401 973e aa0c 3bbe
000001c0: eeb1 7bbf 09fd b53e 6f76 863d e86e adbe
000001d0: bd8d de3e d3de 763e e2bd c8be 94fb 603f
000001e0: 3ec3 043f ac21 213e fba2 2cbe 0410 54bf
000001f0: 113c 483f 5d7c 98be e046 2dbf 34b7 203f
-0.033606708 -0.10334927 0.9266343 0.9588289 -0.5471198 0.9972482 0.21794915 -0.6429127
0.5664537 -0.73616517 0.9396261 -0.65835243 0.2901672 0.32794517 0.23770817 0.8322861
-0.39754257 -0.40141442 -0.87766945 -0.014195286 -0.4807628 0.017608358 -0.1754213 0.3188506
0.87269056 0.29817423 -0.30157584 -0.5144354 -0.90547925 0.8322889 -0.16445358 0.21719268
0.013697809 -0.6219125 0.5302118 0.5785756 0.06998318 -0.53665185 -0.44828996 0.038626008
-0.55160815 -0.57914937 -0.1683257 -0.260552 0.28340152 -0.28917897 -0.15416786 -0.40331042
-0.9111808 0.8402667 0.21075888 0.9100693 -0.14882441 -0.21935548 -0.9211547 -0.36722994
0.6315158 -0.9706678 -0.33940262 0.60622776 0.53882873 0.37718958 -0.17357491 -0.06409043
-0.21515074 -0.33537337 0.44251904 -0.3653576 -0.54078996 0.24773572 -0.74125665 -0.21239984
0.5395511 0.3949394 0.849256 -0.7061053 0.036437195 -0.28242412 -0.5837927 -0.5448417
0.22785348 0.103926115 -0.5408933 -0.72213167 -0.8066563 1.032141 -0.17129351 -0.20589922
-0.33239436 -0.52291834 -0.9294859 -0.56719 0.62808573 0.24422272 -0.38712266 -0.38805503
0.66214633 0.74999017 0.97664136 0.31805855 0.4533813 -0.052449647 -0.557033 -0.977897
0.6047378 -0.17226535 0.43773565 0.07906047 -0.94732744 -0.46533272 0.29493535 -0.1826655
-0.98318374 0.35544613 0.06565558 -0.33873677 0.43467513 0.24108438 -0.3920737 0.8788388
0.51860416 0.15735501 -0.16859047 -0.8283694 0.78216654 -0.29782382 -0.6768627 0.62779546

bias f4 [128]
00000000: bd18 ba3e de2c 833e 0b35 48be 4403 75be
00000010: 1878 2b3e 64e7 413f 8ab5 fe3d fbfa f3be
00000020: e464 7c3f 0aaf 3ebb 65d6 443f 3966 813e
00000030: fc6b 623f 0afe 143f c9a7 07bf 210f 2e3f
00000040: 019f 22bb f7ad 4cbf 17bc 4fbe 204b 65bf
00000050: 4d63 02bf 1479 37bf 27ee 323f 2dca 5cbe
00000060: 5830 2fbe dbc6 e53e a682 d43e 3131 2cbf
00000070: 1902 c33e c027 c13e b47d 4dbf d5e8 5c3f
00000080: 3894 1dbf 93cd ccbe aa8b 4bbf 8b16 673f
00000090: 64b1 433e 27d7 5c3f 5fc7 2d3d f702 0c3f
000000a0: ba1a acbe 8c1e 4dbf 0f78 243e 8fa6 89bd
000000b0: 3a1d a7bd 5264 fbbe cb63 553c cdf1 9d3e
000000c0: 594c bc3e 5d8f 53bf 366b f33e c394 d63d
000000d0: 74b6 243f b778 373f d95f 48bf ec17 773f
000000e0: 01e9 7ebf 391f 153f 43ef 7a3d 2701 d53e
000000f0: 8799 10bf dde8 103f f66d fabe 3240 60bf
00000100: 16dc a63e 2d51 113f 888e 7c3f 0b35 e8bd
00000110: eeb8 783f 5ef6 233f 7130 f9be 80a5 3fbf
00000120: 367e 123f 468d 09bf 0711 e13e 1fd5 5abf
00000130: 5fab 3c3f 7ee0 9b3e 57fb f4bd f57a f53e
00000140: d7f6 38bf 8d64 6abe f81e 1c3c cce0 14bf
00000150: 2bbf 83be 551a c5be b960 713f 40d7 593f
00000160: a941 603f de0c 4f3f 849e 71bf 7640 a83e
00000170: 9977 b73e 1170 37bf f963 c63e ff25 12bf
00000180: d4c8 243e 43fc b03e 9747 563f 882a 03bf
00000190: dbad 4dbf 8b39 6c3f 621a db3e 6ba4 fe3e
000001a0: 2b4c 9e3e 946b c1be 664b 103f ba7d 5cbf
000001b0: df6a 223e 8e8b ef3e 7740 223f 7f04 f5be
000001c0: c35f 2cbf c66c bd3e 3fad 4bbf 50d5 55bf
000001d0: 34ea 60bf b20a f0be efeb 44be 7e26 1cbf
000001e0: 7192 d6be 98db 5ebf a4bc 203f 0e2f 6bbe
000001f0: b080 22bf 97e4 7c3e 1b6d 3fbf 3ed2 2d3f
0.36347 0.25620168 -0.19551484 -0.23927027 0.16745031 0.757437 0.124369696 -0.4765242
0.98591447 -0.002909603 0.7688964 0.25273302 0.8844602 0.5820013 -0.52990395 0.67991835
-0.0024814012 -0.7995295 -0.20286594 -0.89567757 -0.5093277 -0.71669126 0.6989464 -0.21561499
-0.17108285 0.44878277 0.41505927 -0.6726256 0.38087538 0.3772564 -0.8026993 0.86292773
-0.6155429 -0.4000059 -0.79509985 0.9026877 0.19110638 0.86265796 0.042426463 0.54692024
-0.3361414 -0.80124736 0.16061424 -0.06721222 -0.081598714 -0.49099976 0.013024281 0.30848542
0.36777 -0.8264063 0.47542733 0.10477593 0.643409 0.7166857 -0.7827125 0.96520877
-0.99574286 0.58250767 0.061263334 0.41602442 -0.56484264 0.5660532 -0.4891202 -0.87597954
0.32589787 0.5676449 0.98654985 -0.11338242 0.9715718 0.640478 -0.4866977 -0.7486191
0.5722383 -0.5373119 0.43958303 -0.85481447 0.7369899 0.3044471 -0.11962002 0.4794537
-0.7225165 -0.2288992 0.009528868 -0.5815551 -0.25731787 -0.38496652 0.9428821 0.8509407
0.8760019 0.8087901 -0.943825 0.3286168 0.35833433 -0.71655375 0.38748148 -0.5708923
0.16092235 0.3456746 0.8370299 -0.5123677 -0.8034341 0.92275304 0.42793566 0.49734816
0.30917487 -0.37777388 0.5636505 -0.86129344 0.1586108 0.4678616 0.63379616 -0.47854993
-0.6733362 0.3699705 -0.7956123 -0.83528614 -0.87857366 -0.4688316 -0.19230627 -0.60996234
-0.419086 -0.87053823 0.6278784 -0.22967169 -0.6347761 0.24696575 -0.74775857 0.6789893

beta f4 [128]
00000000: 190e d33e dfba 3e3f a16a 723d b6be 5e3f
00000010: 0469 ae3e 5293 3e3f 72a0 0b3f 934f dc3e
00000020: 3522 253f b46a 023f ff57 2f3f 2e33 b63e
00000030: fd35 ea3e ccda e73e 22eb 113f 02d0 f93e
00000040: f1d3 693f fcdd 243f b954 a33e 047b 413e
00000050: 99b3 d83e 81de 963e e758 b33e 239c 023f
00000060: b562 4f3f 9280 423f 95ae 773c 4240 533f
00000070: a51d 213f 75e8 783f f999 503f e640 3c3d
00000080: d640 083d ab9c 833e 1034 773f 1cd1 d73e
00000090: 51d1 373f 00a6 8a3e 96a3 803f 5c60 973e
000000a0: 37a8 5c3f a911 043f a927 793e 55b8 3c3f
000000b0: 40e9 a33e cac5 283f e96f c33e a6dc ea3e
000000c0: 65fe 03bc ed62 8b3e 9e4c 483f 0d97 c63e
000000d0: 00d5 803f 0561 6c3f 56ae eb3e a88f 343e
000000e0: c553 523f 4544 283f fa9c 123e 707d 4f3f
000000f0: 0b98 513f 430b 713f 08e7 563e f32f cf3e
00000100: e756 f73e 547a 163f 34c1 063e aac7 283e
00000110: 9a99 483f bbf1 c63e 17df 403f 2db9 023f
00000120: a5ab 2a3f 1659 193f 4626 2a3f e556 413f
00000130: a78f 3f3d 9b69 423f f8d8 2a3e 9d14 1f3e
00000140: eeab 0a3f a617 da3e 1bac 533f 1eb0 623e
00000150: 7910 2c3d 4b4c 6f3f dded da3e 1422 4b3f
00000160: 8a51 2c3f f48b f33d 44ea 193f e161 1a3f
00000170: bb5a 2d3e dd9e 7a3e e490 263f 2d2d 1c3f
00000180: fbba 973e a745 b33e ddda 733f 7990 cb3e
00000190: 8a73 4d3f 2604 3b3f f4db 3b3e 2f61 633d
000001a0: ce0b 7c3f 35f6 0c3f 566d 5c3f cfcb 163f
000001b0: b6fa 343f cb3b 613f 22e9 7b3f 1aae 163e
000001c0: 3ef1 113f aad0 603f 125c 583f 0aec 503f
000001d0: 89da f43d 9aab 013e a85b 573e e187 0d3f
000001e0: 8373 7b3f fdf9 2b3e 77f6 463f 0118 563e
000001f0: b617 3d3d 0388 c13e d895 4f3f 679d 723f
0.41221693 0.7450389 0.05918372 0.8700975 0.34064496 0.7444354 0.54541695 0.4302946
0.6450532 0.50944066 0.68493646 0.35585922 0.45744315 0.45284116 0.5699941 0.4879151
0.9133902 0.6440122 0.31900576 0.18894583 0.42324522 0.29466632 0.35028765 0.51019496
0.8100999 0.7597743 0.015117307 0.82519925 0.6293586 0.972297 0.81484944 0.04596033
0.033264957 0.25705466 0.96563816 0.42151725 0.71803766 0.27079773 1.0049922 0.29565704
0.86194175 0.5158945 0.24331535 0.7371877 0.32013893 0.659268 0.38171318 0.45871466
-0.008056258 0.27223912 0.7824191 0.38787118 1.0065002 0.9233554 0.46031445 0.17632926
0.8215907 0.6572917 0.14317694 0.8105078 0.81872624 0.9415781 0.20986569 0.4046627
0.4830849 0.5878041 0.13159639 0.16482416 0.7835938 0.388563 0.7534041 0.51063806
0.6666816 0.5990156 0.6646465 0.75523216 0.046767857 0.7594239 0.1668433 0.15535207
0.54168594 0.42596167 0.8268449 0.22137496 0.042007897 0.9347579 0.427596 0.79348874
0.6731192 0.11891928 0.60123086 0.603056 0.16929142 0.24474664 0.65064836 0.6100643
0.29634842 0.35014078 0.95255834 0.3975866 0.80254424 0.73053205 0.18345624 0.055512603
0.9845551 0.5506318 0.86104333 0.5890474 0.70695055 0.8798186 0.9840261 0.14714852
0.5700873 0.87818396 0.8451549 0.8161017 0.11955745 0.12663117 0.21031058 0.5528546
0.9822313 0.16794582 0.77719826 0.20907594 0.04616519 0.3779908 0.8108802 0.94771427

threshold f4 [128]
00000000: 3407 423e 06c7 1b3f 3472 6e3f d5d1 543f
00000010: c6c5 4f3f 02f6 5a3f 4cf6 503f db0f 213f
00000020: 54e2 213e 5816 a43d 0eb2 8a3e 9a30 e23e
00000030: 202b 463e 4bd4 2e3f 4c9d 273f 5608 c63e
00000040: 1432 313f 1e5e 293f 2426 4e3f 6733 563f
00000050: 0e4e a93e 2d0f 7d3f 8867 e23e 7234 f73e
00000060: 00de e53c f077 363e 48e3 543e c080 923e
00000070: 0d01 5b3f 1458 ac3e 5c64 013e 7c3f 313f
00000080: 51fb 283f 87e7 523f e40d 773e 98c0 1b3f
00000090: 94cd a23e b87b c63e a0f4 cf3d 4053 8b3e
000000a0: 1899 b13e c1bc 363f 5e62 173f 3c9e 1f3f
000000b0: e9c1 7f3f 98c0 7c3f 524d 573f 7313 043f
000000c0: 84cd 1d3e 8208 643f d8fb bf3e b84d eb3e
000000d0: 38d3 8d3d c46e cd3e 28c4 353e b69e 753f
000000e0: 00bb 8a3d 48cf e13d a44e f73e 5827 6b3e
000000f0: c6cc 2d3f 8475 9d3e 8ec2 873e e73f 073f
00000100: b0a8 5c3f d8d8 173e 0f1c 3c3f 853b 523f
00000110: 9135 7d3f a8a2 193e 1400 1f3f d869 053e
00000120: b047 6d3f 2cb2 9c3e e519 4d3f 8dcf 033f
00000130: e20f ec3e e4d4 f73e 61c2 153f b556 3c3f
00000140: 5487 143f 0a0c 273f 00c6 4d3d b740 5d3f
00000150: 3d99 6f3f 38ce 693f d99e 5e3f 5486 0e3e
00000160: ce19 a13e 60dc 703f c80f f43d d31f 743f
00000170: c8a0 da3d c457 173e 8e93 3e3f 3422 103e
00000180: a859 c53e 741e 5d3f 2b63 653f 860e 793f
00000190: 9a0d cc3e c015 e43d bb07 7e3f 1e77 c93e
000001a0: 30ac 963e fb33 1f3f 24f2 193e c221 543f
000001b0: c738 503f a879 d33d 28ea b63d 4893 e93e
000001c0: 65c3 353f f095 f83e 5460 7c3e 28ed 023f
000001d0: a009 f63c 6c23 163e c42a 2b3e 7169 693f
000001e0: 2fd5 703f 9a0b a93e a8bd 053f ce15 393f
000001f0: 2d56 0f3f 5c9d 7f3e 90d2 493f 9caf 4e3f
0.1894806 0.6085056 0.9314301 0.8313268 0.81161153 0.8553163 0.8162582 0.6291482
0.15808994 0.08012074 0.2708897 0.44177705 0.19352388 0.68292683 0.6547439 0.38678235
0.6921704 0.66159236 0.8052695 0.83672184 0.33067364 0.9885128 0.44219613 0.482822
0.02805996 0.1781919 0.20789826 0.28613853 0.8554848 0.33660948 0.1263594 0.69237494
0.6600848 0.8238453 0.24126393 0.6084075 0.3179747 0.38766265 0.101540804 0.27211952
0.34687114 0.71381766 0.5913447 0.6235082 0.9990526 0.98731375 0.84102356 0.5159218
0.15410429 0.8907548 0.3749683 0.45957732 0.069250524 0.4012357 0.17750609 0.959453
0.06773949 0.11025864 0.48302186 0.22964227 0.67890584 0.3075372 0.2651562 0.5283188
0.86194897 0.14828813 0.73480314 0.8212207 0.9890986 0.15003455 0.62109494 0.13028657
0.9268751 0.30604684 0.80117637 0.5148857 0.46105868 0.4840461 0.58499724 0.73569804
0.58018994 0.65252745 0.050237656 0.8642687 0.935932 0.9133029 0.8696113 0.1391843
0.31465 0.94086266 0.119170725 0.9536106 0.10675198 0.14779574 0.744439 0.14075547
0.38544965 0.8637459 0.89604443 0.97287786 0.39854127 0.11136961 0.99230546 0.39348692
0.29428244 0.6218869 0.15033776 0.8286401 0.81336635 0.103259385 0.089313805 0.4562018
0.71001273 0.48551893 0.24646121 0.5114312 0.030033886 0.1466195 0.16715533 0.91176516
0.9407529 0.33016664 0.5224252 0.72298896 0.5599087 0.24962372 0.7883692 0.8073671

reset f4 [1, 128]
00000000: 0000 803f 0000 0000 0000 0000 0000 803f
00000010: 0000 0000 0000 803f 0000 0000 0000 0000
00000020: 0000 803f 0000 0000 0000 803f 0000 0000
00000030: 0000 803f 0000 803f 0000 0000 0000 803f
00000040: 0000 0000 0000 0000 0000 0000 0000 0000
00000050: 0000 0000 0000 0000 0000 803f 0000 0000
00000060: 0000 803f 0000 803f 0000 0000 0000 0000
00000070: 0000 0000 0000 803f 0000 0000 0000 803f
00000080: 0000 0000 0000 0000 0000 0000 0000 803f
00000090: 0000 803f 0000 803f 0000 0000 0000 803f
000000a0: 0000 0000 0000 0000 0000 0000 0000 0000
000000b0: 0000 0000 0000 0000 0000 0000 0000 0000
000000c0: 0000 0000 0000 0000 0000 803f 0000 803f
000000d0: 0000 803f 0000 803f 0000 0000 0000 0000
000000e0: 0000 0000 0000 0000 0000 0000 0000 803f
000000f0: 0000 0000 0000 803f 0000 0000 0000 0000
00000100: 0000 0000 0000 803f 0000 803f 0000 0000
00000110: 0000 803f 0000 803f 0000 0000 0000 0000
00000120: 0000 803f 0000 0000 0000 803f 0000 0000
00000130: 0000 803f 0000 0000 0000 0000 0000 0000
00000140: 0000 0000 0000 0000 0000 0000 0000 0000
00000150: 0000 0000 0000 0000 0000 803f 0000 803f
00000160: 0000 803f 0000 0000 0000 0000 0000 0000
00000170: 0000 803f 0000 0000 0000 0000 0000 0000
00000180: 0000 803f 0000 803f 0000 803f 0000 0000
00000190: 0000 0000 0000 803f 0000 0000 0000 0000
000001a0: 0000 803f 0000 0000 0000 803f 0000 0000
000001b0: 0000 0000 0000 803f 0000 803f 0000 0000
000001c0: 0000 0000 0000 803f 0000 0000 0000 0000
000001d0: 0000 0000 0000 0000 0000 0000 0000 0000
000001e0: 0000 0000 0000 0000 0000 803f 0000 0000
000001f0: 0000 0000 0000 0000 0000 0000 0000 803f
1.0 0.0 0.0 1.0 0.0 1.0 0.0 0.0
1.0 0.0 1.0 0.0 1.0 1.0 0.0 1.0
0.0 0.0 0.0 0.0 0.0 0.0 1.0 0.0
1.0 1.0 0.0 0.0 0.0 1.0 0.0 1.0
0.0 0.0 0.0 1.0 1.0 1.0 0.0 1.0
0.0 0.0 0.0 0.0 0.0 0.0 0.0 0.0
0.0 0.0 1.0 1.0 1.0 1.0 0.0 0.0
0.0 0.0 0.0 1.0 0.0 1.0 0.0 0.0
0.0 1.0 1.0 0.0 1.0 1.0 0.0 0.0
1.0 0.0 1.0 0.0 1.0 0.0 0.0 0.0
0.0 0.0 0.0 0.0 0.0 0.0 1.0 1.0
1.0 0.0 0.0 0.0 1.0 0.0 0.0 0.0
1.0 1.0 1.0 0.0 0.0 1.0 0.0 0.0
1.0 0.0 1.0 0.0 0.0 1.0 1.0 0.0
0.0 1.0 0.0 0.0 0.0 0.0 0.0 0.0
0.0 0.0 1.0 0.0 0.0 0.0 0.0 1.0

weight f4 [128, 128]
00000000: 70b9 48bd 8a52 b13c 370a a5bd e26c a63d
00000010: 36d6 af3d 4432 31bc 8f23 563c ad86 3abd
00000020: 197e 1abd 4b5b 37bd 68c0 bebc 1e72 893c
00000030: 2c65 0e3c c39c db3c 82b8 8abd 5f5b 16bd
00000040: 4fb6 9cbd 451b 82bd b296 973d 9d81 063d
00000050: 51a3 acbd ffb3 71bc dd4e d43c f468 413d
00000060: 11c8 dc3d 8f85 243d 576b 883d 4fd4 00bd
00000070: 503b a1bd cf73 0dbd 55ce a63c d4a3 cd3d
00000080: 445a 633d 0321 b43d 6d21 23bd 8b64 fe3b
00000090: 6ffa 063d 6915 b83d 46d5 1bbe e467 c9bc
000000a0: f211 523c 7a42 51bd 503e 073d ad74 c5bb
000000b0: f2a0 bbbc 152a 423d 915e 813d bfab a4bb
000000c0: e7f6 9b3c a269 1ebb 3a8d ba3d 549f c43d
000000d0: aab1 d0bc 8501 723d d7b0 293c cb8c 82bd
000000e0: ae6f acbc 3cd6 f0bc 5758 7dbd 0685 05bc
000000f0: 46a8 f33c 4270 ab3d 2401 dc3b a64c afbd
00000100: 7fbd 3f3d f2cb 01bc 6435 c83d 55ea aebd
00000110: b540 7fbc 01ef b23d 459e 1c3d c19f 34bd
00000120: e100 9cbd e8dc 78ba 43d3 6e3d 1f48 96bd
00000130: 6bdb 61bd ab12 47bc d47f 94bc 7ab2 683d
00000140: 5765 afbd 1356 66bc f046 8cbd 2dec 52bc
00000150: 4bf9 38bd 2dc2 873c 7b35 89bd 1eb4 4fbd
00000160: fd5a 00bd 1f8b 9ebd 168b 643d 263f 4fbc
00000170: 5417 f8bc dab0 7d3d 5f22 f5bc 313e 3b3d
00000180: 033e 863b d196 7cbd 80cf 223d 3670 613d
00000190: e77f b0bd 0492 e53c 1251 903c 9a12 78bd
000001a0: 5347 883c 6f13 e1bc 27f7 4bbd 9e33 6c3c
000001b0: 9126 73bd e5dd 5ebd 898a 1cbc f9d5 77bd
000001c0: 10ee dd3c 3e3b ad3d c8ae 8c3d 4566 60bd
000001d0: d461 453d 7ea2 803d baf5 813a 6fbd 183d
000001e0: 3fdb 4c3d ac81 8a3d 2592 813d d088 1a3d
000001f0: 5669 09bd 38cf 8abd 5bac 2bbd b523 bf3d
00000200: d573 05bd 3b37 c1ba e1d0 a8bd 115a d8bc
00000210: 1f43 ccbc 3f47 8fbd 5a31 8c3d 2b8e 92bd
00000220: 0d09 c3bc e35b cdbb 80c2 babd c6e4 5a3d
00000230: f0f5 20bd 89b6 d73c 860f 4a3d 0ebd 883d
00000240: a519 b33c cfe5 873d 0d2e a73d 2182 8f3c
00000250: a188 93bc 9c40 c6bc 0e39 4e3b 8b49 023d
00000260: 7636 cfbd cd7e 613d 4445 223c fc9f a8bd
00000270: d690 f23d 83fd 373d 4347 073d 16c2 793d
00000280: ef81 ef3a ff2c 96bd 243e 52b9 2a62 593d
00000290: 2948 60bd ff4f d93c b643 ce3d c002 d1bc
000002a0: e1aa 243a 8e07 1a3d f8be 77bd 8f95 643d
000002b0: c019 753d 0028 4b3d 43e3 b43d 32e0 cc3d
000002c0: 99fa f3bc a040 843b dbcc 16bd 2ac8 593c
000002d0: 7f3d 823d 9aeb 73bd 9691 723b ec44 e13d
000002e0: d981 90bd 7691 37bc cdc7 af3d 9d34 4f3d
000002f0: 1028 d23c 7de9 49bd c8fe 06bc 1153 a2bd
00000300: 8b6c aabd 4e7c c0bd 56fb 963d 742c 8f3d
00000310: f0f8 e73c f9b2 08bd 2edb 9b3d 9d42 bfbc
00000320: 9d64 4e3d c087 3cbb 3deb 68bd 6e16 cabc
00000330: bd23 f6bc a65e 8cbd 2387 d83c af9c dcbc
00000340: 7955 263d 8fd4 663d db3d 66bc db94 2f3d
00000350: e5aa 903c a881 343d 7969 83bd 7c19 9bbc
00000360: 1068 26bd 6e9d 9e3d 497b a2bd 047e 4bbd
00000370: ed9a 9cba 84b2 a03d 041c 833d eb63 a9bd
00000380: 3688 a7bd 9d7c 8e3d b150 7339 540b 9bbd
00000390: ee1e e4bc fc06 e13c f168 97bc 4728 2e3c
000003a0: 81a5 86bd 738c 3bbd 1fc8 6fbc 3fe1 0d3d
000003b0: 39d3 2d3d aed4 5cbd df04 d5bc 32c3 8bbd
000003c0: 09e5 883d 0afc 983d 2df2 af3d c8f4 133d
000003d0: 6e66 9abc a866 10bb 249e 023d c1e8 9cbd
000003e0: 15cb b33b 7824 93bd f08b c8bd 1e9c 41bb
000003f0: c782 e6bc c84e 2cbd 1411 703c a230 18bc
-0.049004972 0.021645803 -0.08058589 0.081262365 0.08585779 -0.010815207 0.013070001 -0.045538593
-0.037717912 -0.044764798 -0.023285106 0.016778048 0.008691113 0.026808148 -0.06773473 -0.036708232
-0.0765196 -0.063528575 0.0740179 0.032838453 -0.08429588 -0.014752387 0.025916511 0.04721923
0.10780347 0.040166434 0.066610985 -0.031452473 -0.07872641 -0.03453427 0.020362059 0.10041013
0.055506006 0.08795359 -0.0398268 0.0077634505 0.032953676 0.08988459 -0.15218076 -0.024585672
0.012821661 -0.051088788 0.03301841 -0.0060258717 -0.022903893 0.047403414 0.06316865 -0.0050253565
0.01903863 -0.0024171849 0.09108968 0.09600702 -0.025475342 0.05908348 0.010357103 -0.063745104
-0.021049347 -0.02939903 -0.061851826 -0.008149391 0.029743325 0.08371021 0.006714003 -0.085595414
0.046811577 -0.0079221595 0.097758085 -0.08540789 -0.015579392 0.087369926 0.038236875 -0.044097666
-0.07617355 -0.0009493367 0.058306944 -0.07337975 -0.055140894 -0.012150447 -0.01812736 0.056810834
-0.08564251 -0.014058608 -0.06849468 -0.0128736915 -0.04515962 0.016572082 -0.06699654 -0.050708883
-0.031336773 -0.07741379 0.055796705 -0.012649333 -0.030284561 0.061936237 -0.029923616 0.045713607
0.004096748 -0.061667267 0.03974867 0.055038653 -0.086181454 0.028023727 0.017616782 -0.060564615
0.016635573 -0.027475087 -0.04979625 0.014416603 -0.05936295 -0.054410834 -0.009554514 -0.060506795
0.027091056 0.08458565 0.068692744 -0.05478503 0.048189 0.06280993 0.0009915151 0.037290033
0.050013777 0.06763014 0.06326703 0.03772813 -0.03354772 -0.06777805 -0.041912418 0.093329825
-0.03258117 -0.0014741191 -0.082429655 -0.026410135 -0.02493435 -0.06996011 0.068453506 -0.07156023
-0.023808027 -0.0062670573 -0.09119129 0.05344083 -0.039297044 0.026332157 0.04933121 0.06676684
0.021862814 0.066356294 0.0816308 0.017518105 -0.018009486 -0.02420073 0.0031467113 0.031808417
-0.101178095 0.055052567 0.0099042095 -0.082336396 0.118440315 0.044919502 0.033026945 0.06097611
0.0018272976 -0.07332801 -0.0002005031 0.053072132 -0.054756317 0.026527403 0.100715086 -0.025514007
0.00062815665 0.03760486 -0.060484856 0.055806693 0.05983901 0.049598694 0.08832409 0.10003699
-0.02978258 0.004036024 -0.03681646 0.013292352 0.06359386 -0.05955086 0.0037013046 0.10999474
-0.070560165 -0.011204114 0.08583031 0.050587285 0.025653869 -0.049294937 -0.0082394555 -0.07926
-0.08321484 -0.09398709 0.07372157 0.06990901 0.028316945 -0.033373807 0.076101646 -0.023347193
0.05038892 -0.0028767437 -0.056864966 -0.024668898 -0.030046338 -0.0685399 0.026431626 -0.026930181
0.040608857 0.056355055 -0.014052833 0.04286657 0.017659614 0.044068962 -0.06416602 -0.01893305
-0.040626585 0.07744871 -0.07933671 -0.049680725 -0.0011948027 0.07846549 0.06401828 -0.08271011
-0.08180277 0.06957362 0.00023204346 -0.0757052 -0.02784678 0.02746915 -0.018482657 0.01062972
-0.06574536 -0.04578824 -0.014635115 0.03463864 0.042437766 -0.053913765 -0.0260033 -0.0682434
0.0668431 0.07469948 0.08591113 0.036122113 -0.01884767 -0.0022033844 0.031889096 -0.07661582
0.0054868557 -0.0718469 -0.09792316 -0.0029542516 -0.028138531 -0.04206732 0.014652509 -0.009288939

bias f4 [128]
00000000: 9921 d83d f1f4 e83c 57bd 3abd d5d2 9a3c
00000010: 3d39 ffbb 70c0 b83d e68b 7e3d abff 0abc
00000020: 93f9 84bb beec d23c a6a7 c23d b8d7 593d
00000030: 5622 d03b dc49 683d 19d4 843d a12f 5b3d
00000040: 3f32 8cbc 10a1 2c3d bbde 67bb c73a 953d
00000050: 52ac aebc 3774 cd3c 8095 48bd d076 bbbc
00000060: eec9 d63c 78f1 86bb 416c a5bd fd59 c33c
00000070: 9a62 4fbc d4b5 45b9 d47b 0a3d 9a7b 90bc
00000080: ffbc 4d3d 09f9 8bbd d6a0 703b c2a5 ae3d
00000090: 33e2 d7bb bab7 813d 2f74 32bd ac6d 0f3d
000000a0: e6cd 8ebd 385c b3bc 5e03 4bbd a8a0 e53c
000000b0: 7417 ee3c 4418 efbb d1f1 2dbd 2a67 55bd
000000c0: 5fe8 333d 122f 8ebc c98f c6bd 298d 933d
000000d0: 969e cbb9 8207 383d ab62 053d 6e74 9dbc
000000e0: 9437 84bd 7c50 7fbc bb4c 67bc 0a42 953c
000000f0: e060 c3bd abbc ca39 6055 8abd 146b 60bd
00000100: 66ed bfbd 65fb 9f3d 8e97 8a3d 1f7b 1cbd
00000110: b25b acbc 6dd0 723d 0ce0 6b3a 1643 05bd
00000120: b7a7 b5bc 78d3 bebd edd4 8fbd 465e 8f3d
00000130: 66ec 90bd 44c3 573d d29f 39bd cb19 56bd
00000140: 6d14 12bd 2784 863d 4618 c4bd b32d 383d
00000150: 07af 5a3c 96c6 a53c 3255 8bbd 715d 9cbd
00000160: d20c 3bbc 6f11 5ebc b9bc a6bc dfcc 203d
00000170: 7d31 4f3d c3d8 763d f2e0 1ebd 58f9 1dbd
00000180: a3f1 923d c5a2 b0bb e761 18bd 0d2e 883d
00000190: ce3e 69bd 760d e83c 4a78 e6bc 8314 193c
000001a0: be25 38bd 9011 a1bd dcc6 a439 91d7 e93c
000001b0: db92 53bd ab90 a83a 270d 97bd fec3 57bd
000001c0: 8771 cf3c e887 873d 1783 143d c12d 83bd
000001d0: ef8f 473d e03c 3abd aead 0e3d 9039 f53b
000001e0: 3697 05bd 1b67 aebd f535 b2bd b855 a8bd
000001f0: 1ad4 ccbc 4cbb b63d f2c3 d23c 1298 7c3d
0.10553283 0.02843711 -0.045590725 0.01889936 -0.0077888058 0.090210795 0.062145136 -0.008483808
-0.004058072 0.025747653 0.09504633 0.05318424 0.0063517494 0.056711063 0.06485767 0.05351222
-0.017113803 0.04214579 -0.003538056 0.072866015 -0.021322403 0.02507983 -0.0489707 -0.022883803
0.026219334 -0.004118141 -0.080772884 0.02384662 -0.012657786 -0.0001885512 0.033809498 -0.017637063
0.05022907 -0.06834609 0.003671696 0.085277095 -0.0065882443 0.06333871 -0.043567833 0.0350167
-0.06972866 -0.02189456 -0.049563758 0.028030708 0.029063918 -0.007296594 -0.042466942 -0.052100338
0.04392278 -0.01735643 -0.096953936 0.072046585 -0.00038837333 0.044929035 0.0325648 -0.019220557
-0.06455913 -0.015583154 -0.014117415 0.018219966 -0.09539962 0.0003866901 -0.06754565 -0.054789618
-0.09371452 0.078116216 0.06767188 -0.038203355 -0.021039817 0.0592808 0.0008997924 -0.03253468
-0.0221747 -0.09317678 -0.07023034 0.07000403 -0.070763394 0.052676454 -0.045318432 -0.05227069
-0.03566401 0.06568175 -0.09574942 0.044965457 0.013347394 0.020236295 -0.06803359 -0.0763501
-0.011416631 -0.013553961 -0.020353662 0.03925788 0.050584305 0.060265314 -0.038788743 -0.03856787
0.07174995 -0.0053904974 -0.037202742 0.066494085 -0.05694466 0.028326731 -0.02813353 0.009343269
-0.04495787 -0.07864678 0.0003142868 0.028545173 -0.051653724 0.0012860497 -0.073755555 -0.052677147
0.025322689 0.06617719 0.03625783 -0.06405211 0.04872125 -0.04546821 0.034833603 0.0074836686
-0.03261491 -0.085157596 -0.08701698 -0.082194746 -0.025003482 0.08922443 0.0257282 0.061668463

beta f4 [128]
00000000: 1c9a 493f 80a0 0d3c 1837 dc3d 3466 2e3e
00000010: a4d6 6a3e 79fb 0f3f 0092 b63b 906b 043e
00000020: a874 3a3f 2428 ac3e c221 9a3e 30dd b03d
00000030: 3fe1 333f f309 093f 5c0c 9d3e a075 463e
00000040: d938 1b3f e7d3 223f 70d0 383f ff09 263f
00000050: caf2 d83e 1050 e73d 627c 513f 38ce fd3e
00000060: 38bb 2b3e cb62 6e3f ba5d 473f 5035 db3d
00000070: 3426 803e d0e1 a83e 546e 583e 3ac6 3b3f
00000080: fcbd 123e 90f5 763f b82f 963e 258e 4b3f
00000090: e95b 043f da69 8f3e e879 553f 50a7 f23d
000000a0: 2c1c 713e 9657 0f3f 068a 653f c050 923e
000000b0: 383a 483e 9021 393e ae22 8f3e 9691 a73e
000000c0: 465f c43e fcba 5c3e 7b01 283f 200a 013f
000000d0: b879 313e 6c9d 5b3e b11a 1b3f cc57 fc3e
000000e0: 7a97 5a3f 0031 d93e b074 c23d 8451 053e
000000f0: 8cdb b43e 484d c73e 929b 0e3f 3696 c63e
00000100: 9c3a 2f3f cadb aa3e 34f2 5d3f 6666 1d3f
00000110: e44b b13e de12 723f 79ad 203f c80c 243e
00000120: b80c 633e 0742 503f d575 3a3f 10f1 633f
00000130: ce55 ec3e 9d86 593f 8ba3 3f3f bd95 273f
00000140: f6bf c43e fa63 7b3f 0ee7 193f d0f2 bd3e
00000150: 3c5c fc3e 88d4 7d3f a8f8 553f 6007 ed3e
00000160: 9e7c 7d3f 9735 383f 0867 6f3e c02d 383d
00000170: c062 4a3f e70a 783f 30b2 553e 9192 343f
00000180: fa72 053f 4243 c93e 1464 ba3e 1c9c 233f
00000190: e937 1c3f cb73 563f 85db 2e3f 513f 3a3f
000001a0: 85ea 703f 79db 273f 2a00 133f accc a23e
000001b0: b4df 5d3f 39e7 123f 3881 523f 4e9a 7b3f
000001c0: aebe c63e fa1f 5a3f ea02 cc3e d182 733f
000001d0: 8abf 643f 903d a43e 3097 043f ea33 903e
000001e0: 2676 983e 182b cc3e 3241 fe3e 9ac2 a63e
000001f0: 0062 e53c 1054 4a3e b01f ea3e ec46 ae3e
0.7875078 0.008644223 0.10752696 0.17031175 0.22933441 0.5624309 0.005571604 0.12931657
0.72834253 0.33624375 0.3010388 0.08635938 0.70265573 0.53530806 0.30673492 0.19380808
0.6063362 0.6360459 0.7219305 0.64859 0.42372733 0.112945676 0.8183042 0.49571395
0.16770637 0.93119496 0.7787739 0.10703528 0.25029147 0.3298478 0.21135837 0.73349345
0.14330286 0.9646845 0.29333282 0.7951377 0.51702744 0.28010446 0.8338914 0.118483186
0.23545903 0.5599302 0.8966373 0.28577232 0.19553459 0.1807921 0.27956146 0.3272826
0.38353938 0.21555704 0.6562726 0.50406075 0.17331588 0.2144677 0.605876 0.49285734
0.85387385 0.42420197 0.094949126 0.13019377 0.3532375 0.38926148 0.5570613 0.38786477
0.68448806 0.3337081 0.866977 0.6148437 0.34628212 0.9456004 0.627647 0.160205
0.2217282 0.8135075 0.7283605 0.8903971 0.46159214 0.8497103 0.7485892 0.6546286
0.38427705 0.9819943 0.60118186 0.37099314 0.4928912 0.9915242 0.83582544 0.4629469
0.99018276 0.7195677 0.23379147 0.044965506 0.7905693 0.96891636 0.20868754 0.7053614
0.52128565 0.39309126 0.3640448 0.6391008 0.6102281 0.83770436 0.6830371 0.72752863
0.9410785 0.65569264 0.57422125 0.31796777 0.8666947 0.5738407 0.8222842 0.98282325
0.38817352 0.8520504 0.39845973 0.95121485 0.89354765 0.32078218 0.51793194 0.28164607
0.2977764 0.39876628 0.49659115 0.32570344 0.028000832 0.1975863 0.457273 0.34038484

threshold f4 [128]
00000000: 9b12 5f3f b20b 683f 448b 513f 83a6 383f
00000010: d035 d43d 0cee 783f 2048 733d 98d6 ab3e
00000020: 80a5 173e 6007 2e3f e8e9 ab3d 1ecb 813e
00000030: 90c5 3a3e e847 453e 947e 883e 8cd3 7d3f
00000040: 2417 eb3e 9e04 273f 00bb 6f3b 85ce 713f
00000050: 2041 c83e f075 283d 6036 583f 78c7 ba3e
00000060: ab3d 743f b03b 243e f091 123d 58b7 fe3d
00000070: 6372 373f 584a e33e 80b1 163d bebb 173f
00000080: 9eae ef3e 153e 2e3f 4c8e 7b3e 347d 123e
00000090: 213e 573f 08d0 843e 270a 5a3f 7cc8 673f
000000a0: 0cf1 193e 44f9 893e a268 0f3f 4005 ea3c
000000b0: 4e4f 273f a455 953e cc7e 8e3e 3061 e83d
000000c0: 7ae1 3b3f c0ba 393e d083 cd3d a2ad bc3e
000000d0: f8f7 623e 40c1 633c fa95 333f cc99 9e3e
000000e0: dba8 593f f519 5a3f 2076 393e a084 553e
000000f0: 8a21 a53e 05fa 4a3f 0e30 f73e 9c8b a43e
00000100: 254b 4f3f 6963 793f 4ea1 5e3f 08f1 f03d
00000110: 36d4 ca3e 66e5 ce3e 4d3c 6d3f 7830 773e
00000120: ac8e 5a3e ae00 023f 1288 c43e 4373 303f
00000130: 038f 0f3f 0c4f 4e3e 3613 5d3f 61ad 4f3f
00000140: bf07 1c3f 304e 423d 5026 3c3f 1c0d 553f
00000150: a5a2 233f 800b 9d3e a595 083f baa7 9d3e
00000160: 9281 783f 4e99 7b3f ce2a e23e 1887 273e
00000170: dc4b 4b3f 3454 413f 8ad9 433f 007d fd3d
00000180: 2e67 2b3f 7ec0 923e b0e7 773d 747b 1a3e
00000190: 9242 363f a4eb 2f3f d089 7a3d f895 483f
000001a0: 2714 623f 1c2b 613f 3646 483f 3ad0 d73e
000001b0: b7c4 553f 6735 643f 5ab9 423f 6cbe 0f3e
000001c0: 78a7 a63e 6a67 653f 8c95 613f 91ac 513f
000001d0: 8e00 953e b64c cd3e 1c8e 023e f035 5c3e
000001e0: d341 623f c085 b73d 66bc c03e a02b 1b3f
000001f0: 30cb 4c3e 3ed6 1d3f ccd8 d63e b330 333f
0.87137765 0.90642846 0.8185313 0.72129077 0.103618264 0.9723823 0.059394956 0.3356216
0.14809227 0.67980003 0.083942235 0.2535028 0.18239427 0.19265711 0.2665907 0.9915092
0.45916092 0.6524142 0.0036579967 0.9445575 0.39112186 0.0411281 0.8445797 0.36480308
0.954066 0.16038394 0.035783708 0.12437314 0.71658915 0.44392657 0.03679037 0.59270847
0.4681291 0.6806348 0.24566 0.14305574 0.84079176 0.25939965 0.8517174 0.9054029
0.15033358 0.26947987 0.5601903 0.028566957 0.65355384 0.291669 0.27831113 0.11346662
0.73390925 0.18137646 0.10034907 0.3685122 0.22164905 0.013901055 0.7015072 0.30976713
0.8502328 0.8519586 0.18111467 0.20851374 0.3225215 0.7928775 0.4827885 0.32137764
0.80974036 0.9741731 0.8696488 0.11764723 0.3961503 0.40409392 0.92670137 0.24139583
0.21343488 0.5078229 0.38385063 0.68925875 0.56077594 0.20147341 0.8635744 0.8112393
0.6094932 0.047437847 0.7349596 0.8322313 0.6392005 0.30672836 0.5335334 0.30792028
0.9707271 0.982808 0.44173282 0.16360128 0.7941263 0.7551911 0.76503813 0.123773575
0.66954315 0.28662485 0.06052369 0.15086156 0.7119533 0.68718934 0.061166584 0.78353834
0.88312 0.87956405 0.78232133 0.42151052 0.8350329 0.89143986 0.76064074 0.14037484
0.32549644 0.8961092 0.88118815 0.8190394 0.29101986 0.40097588 0.12749523 0.2150495
0.8838169 0.08961058 0.37643737 0.6061344 0.19999385 0.6165503 0.41962278 0.69996184

weight f4 [1, 128]
00000000: 753a e33c b76b 88bc 9413 313d b072 86bd
00000010: 9077 79bd 2eda c53c 8277 2c3d 5b07 6cbd
00000020: 59ff 8dbd 909d ccbc 5790 9f3d 37c7 823d
00000030: 868a 1abd 1341 463c 8aaf 333b c872 8dbd
00000040: 1c45 95bc 1d72 8a3d b350 1e3d 12e8 163d
00000050: fc89 9e3d af43 1e3d a571 b4bd 37c1 53bd
00000060: 6ba5 09bd 5abf 98bd 7849 683d e742 3f3b
00000070: 933f cd3c 2658 17bc 2d37 9f3c 9f9b aebc
00000080: 8c0a a43d e31c 7d3d 5031 aebc 5bc4 3d3a
00000090: df35 8bbc b10e 31bd d6eb b0bd 4b4e e13c
000000a0: a738 683d 4be8 7dbd 2efd 783d 254e 88bd
000000b0: 90ec 98bd bb4d adbb 8972 493c e065 f7bc
000000c0: ec47 4bbc 9fd8 a63c bbf7 4ebd 6c96 8f3d
000000d0: 6589 5abd 0559 a6bc 3a63 b1bd 2f61 dbbc
000000e0: de52 283c d626 0bbd 64ed 93bd eec9 e2bc
000000f0: 1a59 51bd d15a 683d 4bd8 943d ad26 16bb
00000100: b42a 11bd 0882 503d 5731 83bc b352 903d
00000110: 2d1c 6f3d df90 873d e380 a73d d5be b9bc
00000120: 4af5 a3bd c2d2 b6bc 90e5 acbd 7dea 463c
00000130: ab02 a1bc 97e6 623d ee15 85bd 4a44 ee3c
00000140: a055 c63c 508d 063d 2238 80bd dfff 3b3c
00000150: ea29 42bd 0670 aabc 220b 8d3d 8d5e 0bbd
00000160: 878d 3e3d 0b84 a63c 48d2 b83a 4543 973d
00000170: b278 d63a 08f4 7abd 89a4 8d3d ac47 7a3d
00000180: c321 0bbd a66d 603d 0efc 75bc fa73 023b
00000190: 2d9b dd3b 8fe1 96bd 0df0 ad3d c476 873d
000001a0: b603 a1bd f839 b0bd fd1d af3d 102b 823c
000001b0: 41d7 5ebc a772 fabc 5b8e 8f3d 0cfb 693d
000001c0: db63 b3bd 69bb 7cbd 258a 34bd d43a a5bd
000001d0: 28cf 53bc 6107 093d 4b3d adbc ff8c 7bbd
000001e0: 548c 8dbc 54e9 a3bc 6f44 57bd 051f 693c
000001f0: cfd3 96bd 3dec e83c c159 4fbc b5e2 fabc
0.027737835 -0.016652925 0.04323156 -0.06564844 -0.06090504 0.024151888 0.04210616 -0.057624202
-0.06933469 -0.024977475 0.077912025 0.063856535 -0.037729762 0.012100476 0.0027417862 -0.069066584
-0.01822143 0.06760047 0.03865118 0.036842413 0.07741162 0.038638767 -0.088107385 -0.051697936
-0.03360502 -0.074583724 0.05671069 0.0029184164 0.025054729 -0.009237325 0.01943549 -0.02131444
0.08009824 0.061795127 -0.021263748 0.0007239037 -0.016993461 -0.0432269 -0.08638732 0.027503153
0.056694653 -0.06198911 0.060788326 -0.0665553 -0.07466996 -0.005288807 0.012295374 -0.030199945
-0.012407284 0.020366965 -0.050529223 0.070111126 -0.053353686 -0.02030612 -0.08661504 -0.02677974
0.010273663 -0.033972584 -0.07223013 -0.027684178 -0.051110364 0.056727234 0.07267817 -0.0022911236
-0.035441115 0.050905257 -0.016014738 0.070470236 0.05837648 0.06619429 0.0817888 -0.022674004
-0.080057696 -0.022317294 -0.08442223 0.012140867 -0.019654592 0.05539569 -0.064983234 0.029085297
0.024210751 0.03284961 -0.062607065 0.011474579 -0.047403254 -0.02080537 0.06886889 -0.034025718
0.04652169 0.020326635 0.0014100755 0.073858775 0.0016362874 -0.061267883 0.06916148 0.061103508
-0.033967745 0.05479207 -0.015013708 0.0019905553 0.006762883 -0.07367241 0.08493052 0.066144496
-0.07862036 -0.08604807 0.08550642 0.015889674 -0.013601125 -0.030572249 0.07009574 0.057124183
-0.0875928 -0.061702166 -0.044077057 -0.08067861 -0.012927808 0.033454303 -0.02114739 -0.06141376
-0.017278828 -0.02000872 -0.052555498 0.014228587 -0.07364618 0.02843296 -0.012655676 -0.03062568
