project/api/storage/SNNTorchRegressor_LinearDataset.pt (torch, 79130 bytes, 10 tensors)

weight f4 [128, 1]
0	0xbd10a23a	-0.03531096
1	0xbdd73608	-0.105083525
2	0x3f6c052e	0.92195404
3	0x3f761394	0.96123624
4	0xbf0c2e15	-0.54757816
5	0x3f7fae71	0.9987555
6	0x3e602a9c	0.21891254
7	0xbf24d86a	-0.6439272
8	0x3f10a116	0.564958
9	0xbf3c8852	-0.7364551
10	0x3f708763	0.93956584
11	0xbf287c42	-0.658146
12	0x3e937b85	0.28805175
13	0x3ea6d5d0	0.32585
14	0x3e7660f5	0.24060424
15	0x3f54986a	0.83045065
16	0xbecad070	-0.3961215
17	0xbece12d4	-0.4024874
18	0xbf603b59	-0.8759056
19	0xbc81ee68	-0.015860751
20	0xbef7e694	-0.48418105
21	0x3c928163	0.017883962
22	0xbe342f18	-0.1759609
23	0x3ea271e6	0.31727523
24	0x3f5f1b71	0.8715125
25	0x3e96c2ed	0.29445592
26	0xbe9b7ff1	-0.3037105
27	0xbf039e2c	-0.51413226
28	0xbf60736b	-0.87676114
29	0x3f56a63c	0.83847404
30	0xbe28e44f	-0.16493343
31	0x3e5c060a	0.21486679
32	0x3c75b6c8	0.014997192
33	0xbf1feedc	-0.62473845
34	0x3f0893a4	0.5335028
35	0x3f13d0fe	0.5774077
36	0x3d86736f	0.06564986
37	0xbf09bfa0	-0.5380802
38	0xbed98714	-0.4248587
39	0x3d171473	0.036884736
40	0xbf0d62c7	-0.5522885
41	0xbf13dacb	-0.57755727
42	0xbe29449b	-0.16530077
43	0xbe87381f	-0.26410004
44	0x3e9175c4	0.2841016
45	0xbe93fd8e	-0.28904384
46	0xbe1e0976	-0.15433297
47	0xbeb61ccb	-0.35568842
48	0xbf68e255	-0.90970355
49	0x3f5758d6	0.8411993
50	0x3e56f5b6	0.20992169
51	0x3f688ea5	0.9084266
52	0xbe17abaa	-0.14811578
53	0xbe62924d	-0.22126122
54	0xbf6a84c6	-0.91608846
55	0xbebbe870	-0.36700773
56	0x3f21efd8	0.632566
57	0xbf789fa1	-0.97118574
58	0xbeaee550	-0.34159327
59	0x3f1ac3ee	0.60455215
60	0x3f0ac04d	0.5419968
61	0x3ebe80c1	0.37207606
62	0xbe32ffb7	-0.1748036
63	0xbd863d73	-0.06554689
64	0xbe5b95f5	-0.21443923
65	0xbeabbc1f	-0.33541963
66	0x3ee1cb3d	0.4410037
67	0xbebaece1	-0.3650885
68	0xbf09ab80	-0.53777313
69	0x3e7c4894	0.24637061
70	0xbf3d8c9d	-0.74042684
71	0xbe55d1dc	-0.20880836
72	0x3f09511e	0.536394
73	0x3ec8b639	0.39201525
74	0x3f598338	0.8496585
75	0xbf349b40	-0.7054939
76	0x3d0f1da3	0.034940373
77	0xbe901d7a	-0.2814749
78	0xbf1559fe	-0.5834044
79	0xbf0b06ab	-0.5430705
80	0x3e6a206e	0.22863933
81	0x3dd1b21a	0.10239048
82	0xbf0ad6c1	-0.5423394
83	0xbf38dfce	-0.722165
84	0xbf4eaa02	-0.8072816
85	0x3f83ad2e	1.0287225
86	0xbe300348	-0.17188752
87	0xbe5452f8	-0.20734775
88	0xbeaaa596	-0.33329457
89	0xbf05fd87	-0.5233998
90	0xbf6ccde2	-0.9250165
91	0xbf107f44	-0.5644419
92	0x3f20acb0	0.627635
93	0x3e7a3992	0.24436024
94	0xbec43788	-0.38323617
95	0xbecb2f3f	-0.39684483
96	0x3f28ac8e	0.658883
97	0x3f3fcac2	0.7491876
98	0x3f7a28b9	0.9771839
99	0x3ea217f2	0.31658894
100	0x3ee82c38	0.45346236
101	0xbd5cb285	-0.053881187
102	0xbf0e41c8	-0.55569124
103	0xbf7a4d10	-0.9777384
104	0x3f1ced07	0.61299175
105	0xbe3156a2	-0.17318204
106	0x3edf889e	0.43658918
107	0x3d9f4689	0.077771254
108	0xbf72888f	-0.9473962
109	0xbef0a5cb	-0.4700149
110	0x3e95da14	0.29267943
111	0xbe38fb80	-0.1806469
112	0xbf7b7559	-0.98225933
113	0x3eb3eb33	0.3514038
114	0x3d8406bc	0.06446597
115	0xbead134c	-0.33803785
116	0x3edeba47	0.43501493
117	0x3e7617f2	0.24032572
118	0xbec7ce88	-0.39024758
119	0x3f61f35c	0.8826196
120	0x3f054c8f	0.52069944
121	0x3e20605f	0.15661763
122	0xbe2d21be	-0.16907403
123	0xbf5408a8	-0.8282571
124	0x3f478c5c	0.77948546
125	0xbe9664a9	-0.29373673
126	0xbf2d0adc	-0.67594695
127	0x3f20edb6	0.6286272

bias f4 [128]
0	0x3eb9c99d	0.3628663
1	0x3e832c89	0.25619915
2	0xbe4ad8b7	-0.19809233
3	0xbe6cb502	-0.23115924
4	0x3e2e00a1	0.16992427
5	0x3f44d5c0	0.76888657
6	0x3dfee384	0.12445739
7	0xbef3a7db	-0.47589
8	0x3f7beee5	0.984114
9	0x3a14eae0	0.0005680751
10	0x3f449334	0.76787114
11	0x3e8096dc	0.25115097
12	0x3f623c1b	0.88372964
13	0x3f150cb7	0.58222526
14	0xbf08fb24	-0.5350821
15	0x3f2e58a9	0.68104035
16	0x3c0f1c5e	0.008734791
17	0xbf4ce017	-0.80029434
18	0xbe50e21b	-0.20398752
19	0xbf6579d9	-0.8963905
20	0xbf02ad99	-0.5104614
21	0xbf377da8	-0.7167611
22	0x3f32ce11	0.6984568
23	0xbe5d98fe	-0.21640393
24	0xbe2e8942	-0.17044547
25	0x3ee64884	0.449772
26	0x3ed3c567	0.41361544
27	0xbf2c09fb	-0.6720273
28	0x3ebc0086	0.3671915
29	0x3ec69ec8	0.38793015
30	0xbf4e9a72	-0.80704415
31	0x3f5ce300	0.86283875
32	0xbf1d6557	-0.6148276
33	0xbeccef37	-0.40026256
34	0xbf4a589c	-0.7904146
35	0x3f672bff	0.9030151
36	0x3e43a8ff	0.19107436
37	0x3f5c882f	0.861453
38	0x3d786b22	0.060649045
39	0x3f0be51d	0.54646474
40	0xbeabc1a3	-0.3354617
41	0xbf4d07da	-0.80090106
42	0x3e25045f	0.16114949
43	0xbd91a469	-0.07111437
44	0xbda26c13	-0.0793077
45	0xbefbfd44	-0.49216664
46	0x3c457592	0.012051957
47	0x3e978cbb	0.29599556
48	0x3ebbe585	0.36698547
49	0xbf53648d	-0.82575303
50	0x3ef48458	0.4775722
51	0x3dd6e498	0.104928195
52	0x3f27e167	0.6557831
53	0x3f35bdb2	0.7099258
54	0xbf47ad1e	-0.7799853
55	0x3f770cde	0.9650401
56	0xbf7dc989	-0.99135643
57	0x3f14f356	0.581838
58	0x3d791fa4	0.06082119
59	0x3ed817cf	0.42205665
60	0xbf0fe9e2	-0.5621625
61	0x3f1184ee	0.5684346
62	0xbefad944	-0.48993886
63	0xbf608347	-0.87700313
64	0x3ea5704d	0.3231224
65	0x3f113245	0.5671733
66	0x3f7c79a2	0.98623097
67	0xbde7b9f2	-0.11314763
68	0x3f79bb21	0.9755116
69	0x3f23cd50	0.63985157
70	0xbef92d3a	-0.48667318
71	0xbf3f887e	-0.74817646
72	0x3f122480	0.57086945
73	0xbf0a11d9	-0.53933483
74	0x3ee33408	0.44375634
75	0xbf5aca81	-0.85465246
76	0x3f3c89be	0.7364768
77	0x3e9c4b7b	0.30526337
78	0xbdf58516	-0.11988275
79	0x3ef4e539	0.47831133
80	0xbf38e15d	-0.7221888
81	0xbe6b0826	-0.22952327
82	0xbb3e8176	-0.0029068864
83	0xbf14d4b7	-0.5813708
84	0xbe83946b	-0.2569917
85	0xbec5848a	-0.38577682
86	0x3f716929	0.94301087
87	0x3f58dd81	0.8471299
88	0x3f5fd370	0.87432003
89	0x3f4eb9db	0.8075234
90	0xbf716260	-0.94290733
91	0x3eaf1889	0.34198406
92	0x3eb7ca81	0.35896686
93	0xbf36d213	-0.714143
94	0x3ec567fc	0.38555896
95	0xbf127144	-0.5720408
96	0x3e2461cb	0.1605293
97	0x3eb1afea	0.34704524
98	0x3f59b281	0.85038
99	0xbf0361f2	-0.5132133
100	0xbf4d3577	-0.80159706
101	0x3f6b2acf	0.91862196
102	0x3edcc6d6	0.4312045
103	0x3efdd932	0.4957977
104	0x3ea5ffef	0.32421824
105	0xbec1c7f8	-0.37847877
106	0x3f0fb8be	0.5614127
107	0xbf5cc00a	-0.8623053
108	0x3e1a7280	0.15082741
109	0x3eeb65d8	0.45976138
110	0x3f2416d4	0.6409733
111	0xbef42c7e	-0.47690195
112	0xbf2c6bca	-0.67351973
113	0x3ebe39b6	0.37153405
114	0xbf4cc125	-0.79982215
115	0xbf55b35d	-0.8347681
116	0xbf60cb19	-0.878099
117	0xbef0679f	-0.46954057
118	0xbe45229c	-0.19251484
119	0xbf1b1f5a	-0.60594714
120	0xbed4c747	-0.41558287
121	0xbf5f0d83	-0.8712999
122	0x3f209cae	0.62739074
123	0xbe6b61a8	-0.22986472
124	0xbf22d5a4	-0.6360724
125	0x3e7cdb02	0.2469292
126	0xbf3f33d2	-0.74688447
127	0x3f2e07b9	0.67980534

beta f4 [128]
0	0x3ed39f8b	0.4133266
1	0x3f3e9e8e	0.74460685
2	0x3d5a84cf	0.053349312
3	0x3f64448d	0.891671
4	0x3eb150f8	0.34632087
5	0x3f3f59f4	0.7474663
6	0x3f0bab95	0.5455869
7	0x3edb52c9	0.42836598
8	0x3f257f1d	0.64647084
9	0x3f027dfc	0.50973487
10	0x3f304a56	0.6886343
11	0x3eb239c4	0.34809697
12	0x3eea66ba	0.457815
13	0x3eeb48c6	0.4595396
14	0x3f0ff797	0.5623717
15	0x3efa60cd	0.48901978
16	0x3f69cc13	0.9132702
17	0x3f248b67	0.6427521
18	0x3ea3408f	0.31885192
19	0x3e4122d9	0.1886095
20	0x3edc0db1	0.42979196
21	0x3e97a58a	0.29618484
22	0x3eb42f79	0.3519247
23	0x3f02c18e	0.5107659
24	0x3f4d27f7	0.80139107
25	0x3f42d9a9	0.76113373
26	0x3c6fdc3a	0.014639908
27	0x3f5377fb	0.8260495
28	0x3f20751e	0.62678707
29	0x3f79fa22	0.976473
30	0x3f503f18	0.81346273
31	0x3d3c5029	0.045974884
32	0x3d0a485b	0.03376041
33	0x3e83d753	0.25750217
34	0x3f76c49f	0.9639377
35	0x3ed8e567	0.4236252
36	0x3f37b7ac	0.71764636
37	0x3e8b14ff	0.27164456
38	0x3f80cf4e	1.0063264
39	0x3e97ee9b	0.2967423
40	0x3f5c2c24	0.86004853
41	0x3f043698	0.51645803
42	0x3e77847e	0.24171636
43	0x3f3d8d15	0.740434
44	0x3ea4c44b	0.3218101
45	0x3f29d8f3	0.66346663
46	0x3ec35987	0.3815424
47	0x3ee73b5a	0.4516247
48	0xbc0a4301	-0.008438827
49	0x3e8c606f	0.27417323
50	0x3f48dfa9	0.7846628
51	0x3ec75e3d	0.38939086
52	0x3f80d500	1.0065002
53	0x3f6c742a	0.9236475
54	0x3ee851ea	0.45374995
55	0x3e336805	0.17520149
56	0x3f52690d	0.82191545
57	0x3f288eba	0.65842783
58	0x3e156c85	0.14592178
59	0x3f50865d	0.8145502
60	0x3f51d01b	0.8195817
61	0x3f7106ad	0.9415081
62	0x3e56d267	0.209787
63	0x3ecfcbaf	0.40585086
64	0x3ef4bb4b	0.47799143
65	0x3f17161d	0.5901812
66	0x3e07b666	0.13253173
67	0x3e292458	0.1651777
68	0x3f49a0d6	0.7876104
69	0x3ec7ab4d	0.3899788
70	0x3f415b9c	0.7553041
71	0x3f02efae	0.5114697
72	0x3f2b4e90	0.6691675
73	0x3f1929d1	0.5982943
74	0x3f2ae96e	0.66762435
75	0x3f420200	0.757843
76	0x3d41a13f	0.047272917
77	0x3f429aec	0.7601764
78	0x3e2b4aa0	0.16727686
79	0x3e21ff76	0.15820107
80	0x3f0b0a11	0.54312235
81	0x3eda7d87	0.42673895
82	0x3f53e18b	0.82766026
83	0x3e63e516	0.22255358
84	0x3d28b2f7	0.0411863
85	0x3f655a9d	0.8959139
86	0x3edbb506	0.42911547
87	0x3f4b49d1	0.7940951
88	0x3f2ccc91	0.67499644
89	0x3dec6320	0.11542344
90	0x3f19d948	0.6009717
91	0x3f21cc2b	0.6320216
92	0x3e2f3b0a	0.17112365
93	0x3e76623b	0.2406091
94	0x3f26d514	0.6516888
95	0x3f1d1d24	0.6137259
96	0x3e99f78e	0.30071682
97	0x3eb6e5b3	0.35722122
98	0x3f76b975	0.96376735
99	0x3ecb14e7	0.39664385
100	0x3f4dccb0	0.80390453
101	0x3f3b75ad	0.73226434
102	0x3e42d46a	0.19026342
103	0x3d308c61	0.043102626
104	0x3f7d21b8	0.98879576
105	0x3f0d1c89	0.55121666
106	0x3f5ce4e5	0.86286765
107	0x3f16b214	0.58865476
108	0x3f31f6d2	0.6951724
109	0x3f615c22	0.8803121
110	0x3f7be7f8	0.9840083
111	0x3e14d250	0.14533353
112	0x3f124eab	0.5715129
113	0x3f61310c	0.87965465
114	0x3f5824af	0.84430975
115	0x3f5148a4	0.81751466
116	0x3df2277a	0.11823936
117	0x3e015ac4	0.1263228
118	0x3e5788d7	0.21048294
119	0x3f0cfcf3	0.5507347
120	0x3f7b1dee	0.98092544
121	0x3e2b1f8d	0.16711254
122	0x3f470568	0.77742624
123	0x3e54b2ee	0.20771381
124	0x3d38baaf	0.04509991
125	0x3ec32899	0.3811691
126	0x3f502181	0.8130112
127	0x3f72cb44	0.9484141

threshold f4 [128]
0	0x3e420734	0.1894806
1	0x3f1bc706	0.6085056
2	0x3f6e7234	0.9314301
3	0x3f54d1d5	0.8313268
4	0x3f4fc5c6	0.81161153
5	0x3f5af602	0.8553163
6	0x3f50f64c	0.8162582
7	0x3f210fdb	0.6291482
8	0x3e21e254	0.15808994
9	0x3da41658	0.08012074
10	0x3e8ab20e	0.2708897
11	0x3ee2309a	0.44177705
12	0x3e462b20	0.19352388
13	0x3f2ed44b	0.68292683
14	0x3f279d4c	0.6547439
15	0x3ec60856	0.38678235
16	0x3f313214	0.6921704
17	0x3f295e1e	0.66159236
18	0x3f4e2624	0.8052695
19	0x3f563367	0.83672184
20	0x3ea94e0e	0.33067364
21	0x3f7d0f2d	0.9885128
22	0x3ee26788	0.44219613
23	0x3ef73472	0.482822
24	0x3ce5de00	0.02805996
25	0x3e3677f0	0.1781919
26	0x3e54e348	0.20789826
27	0x3e9280c0	0.28613853
28	0x3f5b010d	0.8554848
29	0x3eac5814	0.33660948
30	0x3e01645c	0.1263594
31	0x3f313f7c	0.69237494
32	0x3f28fb51	0.6600848
33	0x3f52e787	0.8238453
34	0x3e770de4	0.24126393
35	0x3f1bc098	0.6084075
36	0x3ea2cd94	0.3179747
37	0x3ec67bb8	0.38766265
38	0x3dcff4a0	0.101540804
39	0x3e8b5340	0.27211952
40	0x3eb19918	0.34687114
41	0x3f36bcc1	0.71381766
42	0x3f17625e	0.5913447
43	0x3f1f9e3c	0.6235082
44	0x3f7fc1e9	0.9990526
45	0x3f7cc098	0.98731375
46	0x3f574d52	0.84102356
47	0x3f041373	0.5159218
48	0x3e1dcd84	0.15410429
49	0x3f640882	0.8907548
50	0x3ebffbd8	0.3749683
51	0x3eeb4db8	0.45957732
52	0x3d8dd338	0.069250524
53	0x3ecd6ec4	0.4012357
54	0x3e35c428	0.17750609
55	0x3f759eb6	0.959453
56	0x3d8abb00	0.06773949
57	0x3de1cf48	0.11025864
58	0x3ef74ea4	0.48302186
59	0x3e6b2758	0.22964227
60	0x3f2dccc6	0.67890584
61	0x3e9d7584	0.3075372
62	0x3e87c28e	0.2651562
63	0x3f073fe7	0.5283188
64	0x3f5ca8b0	0.86194897
65	0x3e17d8d8	0.14828813
66	0x3f3c1c0f	0.73480314
67	0x3f523b85	0.8212207
68	0x3f7d3591	0.9890986
69	0x3e19a2a8	0.15003455
70	0x3f1f0014	0.62109494
71	0x3e0569d8	0.13028657
72	0x3f6d47b0	0.9268751
73	0x3e9cb22c	0.30604684
74	0x3f4d19e5	0.80117637
75	0x3f03cf8d	0.5148857
76	0x3eec0fe2	0.46105868
77	0x3ef7d4e4	0.4840461
78	0x3f15c261	0.58499724
79	0x3f3c56b5	0.73569804
80	0x3f148754	0.58018994
81	0x3f270c0a	0.65252745
82	0x3d4dc600	0.050237656
83	0x3f5d40b7	0.8642687
84	0x3f6f993d	0.935932
85	0x3f69ce38	0.9133029
86	0x3f5e9ed9	0.8696113
87	0x3e0e8654	0.1391843
88	0x3ea119ce	0.31465
89	0x3f70dc60	0.94086266
90	0x3df40fc8	0.119170725
91	0x3f741fd3	0.9536106
92	0x3ddaa0c8	0.10675198
93	0x3e1757c4	0.14779574
94	0x3f3e938e	0.744439
95	0x3e102234	0.14075547
96	0x3ec559a8	0.38544965
97	0x3f5d1e74	0.8637459
98	0x3f65632b	0.89604443
99	0x3f790e86	0.97287786
100	0x3ecc0d9a	0.39854127
101	0x3de415c0	0.11136961
102	0x3f7e07bb	0.99230546
103	0x3ec9771e	0.39348692
104	0x3e96ac30	0.29428244
105	0x3f1f33fb	0.6218869
106	0x3e19f224	0.15033776
107	0x3f5421c2	0.8286401
108	0x3f5038c7	0.81336635
109	0x3dd379a8	0.103259385
110	0x3db6ea28	0.089313805
111	0x3ee99348	0.4562018
112	0x3f35c365	0.71001273
113	0x3ef895f0	0.48551893
114	0x3e7c6054	0.24646121
115	0x3f02ed28	0.5114312
116	0x3cf609a0	0.030033886
117	0x3e16236c	0.1466195
118	0x3e2b2ac4	0.16715533
119	0x3f696971	0.91176516
120	0x3f70d52f	0.9407529
121	0x3ea90b9a	0.33016664
122	0x3f05bda8	0.5224252
123	0x3f3915ce	0.72298896
124	0x3f0f562d	0.5599087
125	0x3e7f9d5c	0.24962372
126	0x3f49d290	0.7883692
127	0x3f4eaf9c	0.8073671

reset f4 [1, 128]
0	0x3f800000	1.0
1	0x00000000	0.0
2	0x00000000	0.0
3	0x00000000	0.0
4	0x00000000	0.0
5	0x3f800000	1.0
6	0x00000000	0.0
7	0x00000000	0.0
8	0x3f800000	1.0
9	0x00000000	0.0
10	0x3f800000	1.0
11	0x00000000	0.0
12	0x3f800000	1.0
13	0x3f800000	1.0
14	0x00000000	0.0
15	0x3f800000	1.0
16	0x00000000	0.0
17	0x00000000	0.0
18	0x00000000	0.0
19	0x00000000	0.0
20	0x00000000	0.0
21	0x00000000	0.0
22	0x3f800000	1.0
23	0x00000000	0.0
24	0x3f800000	1.0
25	0x3f800000	1.0
26	0x00000000	0.0
27	0x00000000	0.0
28	0x00000000	0.0
29	0x3f800000	1.0
30	0x00000000	0.0
31	0x3f800000	1.0
32	0x00000000	0.0
33	0x00000000	0.0
34	0x00000000	0.0
35	0x3f800000	1.0
36	0x3f800000	1.0
37	0x3f800000	1.0
38	0x00000000	0.0
39	0x3f800000	1.0
40	0x00000000	0.0
41	0x00000000	0.0
42	0x00000000	0.0
43	0x00000000	0.0
44	0x00000000	0.0
45	0x00000000	0.0
46	0x00000000	0.0
47	0x00000000	0.0
48	0x00000000	0.0
49	0x00000000	0.0
50	0x3f800000	1.0
51	0x3f800000	1.0
52	0x3f800000	1.0
53	0x3f800000	1.0
54	0x00000000	0.0
55	0x00000000	0.0
56	0x00000000	0.0
57	0x00000000	0.0
58	0x00000000	0.0
59	0x3f800000	1.0
60	0x00000000	0.0
61	0x3f800000	1.0
62	0x00000000	0.0
63	0x00000000	0.0
64	0x00000000	0.0
65	0x3f800000	1.0
66	0x3f800000	1.0
67	0x00000000	0.0
68	0x3f800000	1.0
69	0x3f800000	1.0
70	0x00000000	0.0
71	0x00000000	0.0
72	0x3f800000	1.0
73	0x00000000	0.0
74	0x3f800000	1.0
75	0x00000000	0.0
76	0x3f800000	1.0
77	0x00000000	0.0
78	0x00000000	0.0
79	0x00000000	0.0
80	0x00000000	0.0
81	0x00000000	0.0
82	0x00000000	0.0
83	0x00000000	0.0
84	0x00000000	0.0
85	0x00000000	0.0
86	0x00000000	0.0
87	0x3f800000	1.0
88	0x3f800000	1.0
89	0x00000000	0.0
90	0x00000000	0.0
91	0x00000000	0.0
92	0x3f800000	1.0
93	0x00000000	0.0
94	0x00000000	0.0
95	0x00000000	0.0
96	0x3f800000	1.0
97	0x3f800000	1.0
98	0x3f800000	1.0
99	0x00000000	0.0
100	0x00000000	0.0
101	0x3f800000	1.0
102	0x00000000	0.0
103	0x00000000	0.0
104	0x3f800000	1.0
105	0x00000000	0.0
106	0x3f800000	1.0
107	0x00000000	0.0
108	0x00000000	0.0
109	0x3f800000	1.0
110	0x3f800000	1.0
111	0x00000000	0.0
112	0x00000000	0.0
113	0x3f800000	1.0
114	0x00000000	0.0
115	0x00000000	0.0
116	0x00000000	0.0
117	0x00000000	0.0
118	0x00000000	0.0
119	0x00000000	0.0
120	0x00000000	0.0
121	0x00000000	0.0
122	0x3f800000	1.0
123	0x00000000	0.0
124	0x00000000	0.0
125	0x00000000	0.0
126	0x00000000	0.0
127	0x3f800000	1.0

weight f4 [128, 128]
0	0xbd4d0e30	-0.05006236
1	0xbc38db68	-0.011282779
2	0xbda50a37	-0.08058589
3	0x3ddb5918	0.10710353
4	0x3dafd636	0.08585779
5	0xbc3a9bfa	-0.011389727
6	0x3c56238f	0.013070001
7	0xbd3a86ad	-0.045538593
8	0xbd1ed2da	-0.038775302
9	0xbd375b4b	-0.044764798
10	0xbcc769f5	-0.024342516
11	0x3c89721e	0.016778048
12	0x3bfa2431	0.007633709
13	0x3cd09de1	0.025465908
14	0xbd8ab882	-0.06773473
15	0xbd1ab020	-0.037765622
16	0xbd9cb64f	-0.0765196
17	0xbd821b45	-0.063528575
18	0x3d9796b2	0.0740179
19	0x3d06819d	0.032838453
20	0xbdaca351	-0.08429588
21	0xbc71b3ff	-0.014752387
22	0x3ccba552	0.024859104
23	0x3d4168f4	0.04721923
24	0x3dd88114	0.10571495
25	0x3d2030d0	0.03910905
26	0x3d86cf1f	0.06582474
27	0xbd00d44f	-0.031452473
28	0xbc84ec80	-0.016226053
29	0xbd11c891	-0.035591666
30	0x3ca6ce55	0.020362059
31	0x3dcb7976	0.09935276
32	0x3d635a44	0.055506006
33	0x3db42103	0.08795359
34	0xbd23216d	-0.0398268
35	0x3bdbbe64	0.006706046
36	0x3ca58ce7	0.020208789
37	0x3db5eb0b	0.088827215
38	0xbe151e8a	-0.14562431
39	0xbcd2116b	-0.025643071
40	0x3c5211f2	0.012821661
41	0xbd51427a	-0.051088788
42	0x3d073e50	0.03301841
43	0xbbc574ad	-0.0060258717
44	0xbcbba0f2	-0.022903893
45	0x3d422a15	0.047403414
46	0x3d815e91	0.06316865
47	0x3db01350	0.085974336
48	0x3ca18f00	0.019721508
49	0xbb1e69a2	-0.0024171849
50	0x3db862dc	0.09003231
51	0x3dbf179b	0.09330674
52	0xbcd95b30	-0.02653274
53	0x3d6dacc4	0.05802609
54	0x3c29b0d7	0.010357103
55	0xbd8337ed	-0.06407151
56	0xbcac6fae	-0.021049347
57	0xbd0688b0	-0.0328452
58	0xbd7d5857	-0.061851826
59	0xbc16d81c	-0.009206798
60	0x3cf3a846	0.029743325
61	0x3da945e4	0.08265284
62	0x3bdc0124	0.006714003
63	0xbdaf4ca6	-0.085595414
64	0x3d3fbd7f	0.046811577
65	0xbc131f07	-0.008979565
66	0x3dc60b06	0.09670071
67	0xbdaeea55	-0.08540789
68	0xbc717e53	-0.014739591
69	0x3db0c4a3	0.086312555
70	0x3d1c9e45	0.038236875
71	0xbd349fc1	-0.044097666
72	0xbd94c586	-0.07264237
73	0xba78dce8	-0.0009493367
74	0x3d70b0e9	0.058762465
75	0xbd96481f	-0.07337975
76	0xbd66302b	-0.05619828
77	0xbcbc9518	-0.023020312
78	0xbc947fd4	-0.01812736
79	0x3d68b27a	0.056810834
80	0xbdaf6557	-0.08564251
81	0xbc665613	-0.014058608
82	0xbd8c46f0	-0.06849468
83	0xbc52ec2d	-0.0128736915
84	0xbd38f94b	-0.04515962
85	0x3ca67c81	0.02032304
86	0xbd8bec56	-0.06832187
87	0xbd5408df	-0.051766273
88	0xbd04afbe	-0.032394163
89	0xbd9e8b1f	-0.07741379
90	0x3d648b16	0.055796705
91	0xbc4f3f26	-0.012649333
92	0xbd00606d	-0.03134196
93	0x3d7db0da	0.061936237
94	0xbcf75846	-0.03019346
95	0x3d3b3e31	0.045713607
96	0x399b4be4	0.00029620447
97	0xbd8cd026	-0.06875639
98	0x3d2214b6	0.039570533
99	0x3d617036	0.055038653
100	0xbdb07fe7	-0.086181454
101	0x3cdce879	0.02696632
102	0x3c905112	0.017616782
103	0xbd71a6fd	-0.058997143
104	0x3c7f3b94	0.015578169
105	0xbce1136f	-0.027475087
106	0xbd504be7	-0.050853636
107	0x3c6c339e	0.014416603
108	0xbd732691	-0.05936295
109	0xbd625dd5	-0.055265266
110	0xbc2ddda0	-0.010611922
111	0xbd77d5f9	-0.060506795
112	0x3cddee10	0.027091056
113	0x3dab6209	0.08368308
114	0x3d8caec8	0.068692744
115	0xbd606645	-0.05478503
116	0x3d4561d4	0.048189
117	0x3d80a27e	0.06280993
118	0x3a81f5ba	0.0009915151
119	0x3d18bd6f	0.037290033
120	0x3d4cdb3f	0.050013777
121	0x3d8a81ac	0.06763014
122	0x3d82e7c7	0.06391864
123	0x3d1a88d0	0.03772813
124	0xbd096956	-0.03354772
125	0xbd5797e4	-0.05263509
126	0xbd2bac5b	-0.041912418
127	0x3dbeed97	0.093226604
128	0xbd05f2a6	-0.03270211
129	0x3a948911	0.0011332353
130	0xbda8d0e1	-0.082429655
131	0xbd054acb	-0.03254203
132	0xbccc431f	-0.02493435
133	0xbd909a28	-0.07060653
134	0x3d8c315a	0.068453506
135	0xbd928e2b	-0.07156023
136	0xbcc406af	-0.023928968
137	0xbbcd5be3	-0.0062670573
138	0xbdbb01e0	-0.09131217
139	0x3d5ae4c6	0.05344083
140	0xbd2174c1	-0.039417986
141	0x3cd489d1	0.025944622
142	0x3d4a0f86	0.04933121
143	0x3d887dae	0.066645965
144	0x3cb319a5	0.021862814
145	0x3d87e5cf	0.066356294
146	0x3da72e0d	0.0816308
147	0x3c8f8221	0.017518105
148	0xbc9388a1	-0.018009486
149	0xbcc6409c	-0.02420073
150	0x3b464c6e	0.0030257958
151	0x3d02498b	0.031808417
152	0xbdcea75a	-0.100905135
153	0x3d60fffb	0.054931622
154	0x3c1fa394	0.00974359
155	0xbda89ffc	-0.082336396
156	0x3d2b4727	0.041815903
157	0x3d377eb2	0.04479856
158	0x3d074743	0.033026945
159	0x3d794344	0.060855165
160	0x3aef81ef	0.0018272976
161	0xbd962cff	-0.07332801
162	0xb9523e24	-0.0002005031
163	0x3d58e359	0.05295119
164	0xbd57af20	-0.052657247
165	0x3cd8525d	0.026406461
166	0x3dbef644	0.09324315
167	0xbcd20061	-0.025634946
168	0x3a24aae1	0.00062815665
169	0x3d1a078e	0.03760486
170	0xbd77bef8	-0.060484856
171	0x3d64958f	0.055806693
172	0x3d7519c0	0.05983901
173	0x3d4b2800	0.049598694
174	0x3db4e343	0.08832409
175	0xbb7cf17b	-0.0038596082
176	0xbcfa9431	-0.030588241
177	0x3b8440a0	0.004036024
178	0xbd174bac	-0.0369374
179	0x3c67b898	0.014143132
180	0x3d81fe1e	0.06347297
181	0xbd746a6b	-0.0596718
182	0x3b729196	0.0037013046
183	0x3ddad38d	0.10684881
184	0xbd9081d9	-0.070560165
185	0xbc391879	-0.011297339
186	0x3dafc7cd	0.08583031
187	0x3d4eb5cc	0.050466344
188	0x3cd22810	0.025653869
189	0xbd4a684e	-0.04941588
190	0xbc06fec8	-0.0082394555
191	0xbda25311	-0.07926
192	0xbdaa6c8b	-0.08321484
193	0xbdc0bbae	-0.09410797
194	0x3d96bbf6	0.073600695
195	0x3d8f2c74	0.06990901
196	0x3cd6fb46	0.026242863
197	0xbd0931c9	-0.033494744
198	0x3d9bdb2e	0.076101646
199	0xbcbf429d	-0.023347193
200	0x3d48f029	0.04905716
201	0xbb3c87c0	-0.0028767437
202	0xbd6ef8fb	-0.058342915
203	0xbcca166e	-0.024668898
204	0xbcf72161	-0.030167283
205	0xbd8491f1	-0.064731486
206	0x3cd88723	0.026431626
207	0xbcdc9caf	-0.026930181
208	0x3d265579	0.040608857
209	0x3d66d48f	0.056355055
210	0xbc663ddb	-0.014052833
211	0x3d2f94db	0.04286657
212	0x3c90aae5	0.017659614
213	0x3d3d76d3	0.046255898
214	0xbd83a0ca	-0.064271525
215	0xbc9c171d	-0.01905399
216	0xbd26e6e1	-0.040747527
217	0x3d9e9d6e	0.07744871
218	0xbda27b49	-0.07933671
219	0xbd4b7e04	-0.049680725
220	0xbaac7437	-0.0013157193
221	0x3da0b284	0.07846549
222	0x3d7d9cc6	0.06191709
223	0xbda963eb	-0.08271011
224	0xbda4857b	-0.08033272
225	0x3d8e70b4	0.0695509
226	0xba35d5b8	-0.00069364486
227	0xbd9b0b54	-0.0757052
228	0xbce41eee	-0.02784678
229	0x3ce0095a	0.02734821
230	0xbc9768f1	-0.018482657
231	0x3c024470	0.007950887
232	0xbd86e4e0	-0.06586623
233	0xbd3b8c73	-0.04578824
234	0xbc71c34e	-0.014756037
235	0x3d0de13f	0.03463864
236	0x3d2dd339	0.042437766
237	0xbd5e2296	-0.054232202
238	0xbcd60280	-0.026124239
239	0xbd8bc332	-0.0682434
240	0x3d88e509	0.0668431
241	0x3d97a874	0.07405177
242	0x3daff22d	0.08591113
243	0x3d13f4c8	0.036122113
244	0xbc9a666e	-0.01884767
245	0xbb1066a8	-0.0022033844
246	0x3d029e24	0.031889096
247	0xbd9ce8c1	-0.07661582
248	0x3bb3cb15	0.0054868557
249	0xbd932478	-0.0718469
250	0xbdca2cb8	-0.09871811
251	0xbb419c1e	-0.0029542516
252	0xbce682c7	-0.028138531
253	0xbd4386e7	-0.047736075
254	0x3c701114	0.014652509
255	0xbc25ca8d	-0.010119093

bias f4 [128]
0	0x3dd5f73b	0.10447546
1	0x3ce7f74d	0.028316164
2	0xbd3c93ae	-0.046039276
3	0x3c9c53f8	0.019083008
4	0xbbf7c233	-0.007560992
5	0x3db75f68	0.08953744
6	0x3d7e0f7c	0.062026486
7	0xbc1527fe	-0.009103773
8	0xbb653058	-0.0034971442
9	0x3cd50c72	0.026006911
10	0x3dc055f3	0.093913935
11	0x3d56a54f	0.052403744
12	0x3bc57bd0	0.0060267225
13	0x3d6585a1	0.05603564
14	0x3d81e481	0.06342412
15	0x3d5a6f43	0.053328764
16	0xbc88d27b	-0.016701927
17	0x3d25b978	0.04046008
18	0xbb4bf6fa	-0.0031122551
19	0x3d94a1a8	0.07257396
20	0xbcb6f855	-0.02233521
21	0x3cc1fa63	0.023678964
22	0xbd494e02	-0.04914666
23	0xbcb9ebd9	-0.022695469
24	0x3cd79be4	0.026319452
25	0xbb85d544	-0.004084261
26	0xbda70dbf	-0.08156919
27	0x3cbe2869	0.023212628
28	0xbc808b19	-0.015691327
29	0xbb823ece	-0.003974772
30	0x3d04bd5e	0.032407157
31	0xbc90860c	-0.017642044
32	0x3d4757e7	0.048667815
33	0xbd8cf459	-0.06882543
34	0x3b8690bf	0.0041066105
35	0x3da7527a	0.08170028
36	0xbbe14eda	-0.006875855
37	0x3d82958f	0.06376182
38	0xbd33ebb8	-0.04392597
39	0x3d0bb022	0.03410352
40	0xbd8e46c2	-0.0694709
41	0xbcb10617	-0.02160935
42	0xbd4c44f5	-0.04987045
43	0x3ce74f19	0.028235959
44	0x3cf40820	0.02978903
45	0xbbe74909	-0.007058267
46	0xbd38a7ca	-0.04508189
47	0xbd52be0a	-0.051450767
48	0x3d2e733b	0.04259036
49	0xbc9e5d09	-0.019331472
50	0xbdc609f9	-0.09669871
51	0x3d9180ed	0.07104669
52	0xb9a99704	-0.00032346707
53	0x3d39892d	0.045296837
54	0x3d04a159	0.032380436
55	0xbc9ceb98	-0.019155309
56	0xbd87f9f5	-0.066394724
57	0xbc80c912	-0.015720878
58	0xbc67e4d6	-0.01415368
59	0x3c9d2216	0.019181293
60	0xbdc386e9	-0.095472164
61	0x3847bc2e	4.7620553e-05
62	0xbd8c6392	-0.06854929
63	0xbd6046c0	-0.054754972
64	0xbdc08240	-0.09399843
65	0x3d9d1926	0.07670812
66	0x3d8a4897	0.06752127
67	0xbd1c92d9	-0.038225982
68	0xbcae46ab	-0.021273931
69	0x3d75016b	0.059815805
70	0xb9302ea5	-0.00016802044
71	0xbd02c8ab	-0.031929653
72	0xbcaefce0	-0.021360815
73	0xbdc0084e	-0.09376584
74	0xbd8eea39	-0.06978268
75	0x3d90317f	0.07040691
76	0xbd90442f	-0.07044255
77	0x3d548809	0.051887546
78	0xbd37dad8	-0.04488644
79	0xbd58aa1d	-0.052896608
80	0xbd13e288	-0.03610471
81	0x3d87b06d	0.066254474
82	0xbdc33476	-0.095314905
83	0x3d351cd4	0.044216946
84	0x3c62b197	0.013836286
85	0x3ca3f63d	0.020014876
86	0xbd8cda56	-0.06877582
87	0xbd9c54b3	-0.076333426
88	0xbc4468a3	-0.011987838
89	0xbc78303d	-0.01514822
90	0xbcbb45bb	-0.022860399
91	0x3d2174bc	0.039417967
92	0x3d516077	0.051117387
93	0x3d7af26a	0.06126634
94	0xbd21f1d4	-0.039537266
95	0xbd1d4a19	-0.038400743
96	0x3d93f90f	0.072252385
97	0xbbd7a108	-0.0065804757
98	0xbd166008	-0.036712676
99	0x3d8a43b9	0.06751198
100	0xbd707b4e	-0.058711343
101	0x3ce7ab18	0.028279826
102	0xbced6f30	-0.028983682
103	0x3bea7de3	0.00715612
104	0xbd37332a	-0.04472653
105	0xbda11d85	-0.078669585
106	0x3a809fb0	0.0009813216
107	0x3ce5ef7d	0.028068298
108	0xbd525e04	-0.05135919
109	0x3acb1880	0.0015494972
110	0xbd97b047	-0.07406669
111	0xbd5449b2	-0.051828094
112	0x3cd16d7d	0.025564903
113	0x3d880147	0.06640869
114	0x3d146a96	0.03623446
115	0xbd833b74	-0.06407824
116	0x3d46819b	0.048463445
117	0xbd3f4f33	-0.04670639
118	0x3d11f8ce	0.03563767
119	0x3be20635	0.0068977126
120	0xbd070542	-0.032964
121	0xbdaeb16f	-0.085299365
122	0xbdb2420d	-0.087040044
123	0xbda88829	-0.082290955
124	0xbcc75043	-0.024330264
125	0x3db5a54a	0.08869417
126	0x3cda982d	0.026683891
127	0x3d7ba422	0.061435826

beta f4 [128]
0	0x3f499a1c	0.7875078
1	0x3c0da080	0.008644223
2	0x3ddc3718	0.10752696
3	0x3e2e6634	0.17031175
4	0x3e6ad6a4	0.22933441
5	0x3f0ffb79	0.5624309
6	0x3bb69200	0.005571604
7	0x3e046b90	0.12931657
8	0x3f3a74a8	0.72834253
9	0x3eac2824	0.33624375
10	0x3e9a21c2	0.3010388
11	0x3db0dd30	0.08635938
12	0x3f33e13f	0.70265573
13	0x3f0909f3	0.53530806
14	0x3e9d0c5c	0.30673492
15	0x3e4675a0	0.19380808
16	0x3f1b38d9	0.6063362
17	0x3f22d3e7	0.6360459
18	0x3f38d070	0.7219305
19	0x3f2609ff	0.64859
20	0x3ed8f2ca	0.42372733
21	0x3de75010	0.112945676
22	0x3f517c62	0.8183042
23	0x3efdce38	0.49571395
24	0x3e2bbb38	0.16770637
25	0x3f6e62cb	0.93119496
26	0x3f475dba	0.7787739
27	0x3ddb3550	0.10703528
28	0x3e802634	0.25029147
29	0x3ea8e1d0	0.3298478
30	0x3e586e54	0.21135837
31	0x3f3bc63a	0.73349345
32	0x3e12bdfc	0.14330286
33	0x3f76f590	0.9646845
34	0x3e962fb8	0.29333282
35	0x3f4b8e25	0.7951377
36	0x3f045be9	0.51702744
37	0x3e8f69da	0.28010446
38	0x3f5579e8	0.8338914
39	0x3df2a750	0.118483186
40	0x3e711c2c	0.23545903
41	0x3f0f5796	0.5599302
42	0x3f658a06	0.8966373
43	0x3e9250c0	0.28577232
44	0x3e483a38	0.19553459
45	0x3e392190	0.1807921
46	0x3e8f22ae	0.27956146
47	0x3ea79196	0.3272826
48	0x3ec45f46	0.38353938
49	0x3e5cbafc	0.21555704
50	0x3f28017b	0.6562726
51	0x3f010a20	0.50406075
52	0x3e3179b8	0.17331588
53	0x3e5b9d6c	0.2144677
54	0x3f1b1ab1	0.605876
55	0x3efc57cc	0.49285734
56	0x3f5a977a	0.85387385
57	0x3ed93100	0.42420197
58	0x3dc274b0	0.094949126
59	0x3e055184	0.13019377
60	0x3eb4db8c	0.3532375
61	0x3ec74d48	0.38926148
62	0x3f0e9b92	0.5570613
63	0x3ec69636	0.38786477
64	0x3f2f3a9c	0.68448806
65	0x3eaadbca	0.3337081
66	0x3f5df234	0.866977
67	0x3f1d6666	0.6148437
68	0x3eb14be4	0.34628212
69	0x3f7212de	0.9456004
70	0x3f20ad79	0.627647
71	0x3e240cc8	0.160205
72	0x3e630cb8	0.2217282
73	0x3f504207	0.8135075
74	0x3f3a75d5	0.7283605
75	0x3f63f110	0.8903971
76	0x3eec55ce	0.46159214
77	0x3f59869d	0.8497103
78	0x3f3fa38b	0.7485892
79	0x3f2795bd	0.6546286
80	0x3ec4bff6	0.38427705
81	0x3f7b63fa	0.9819943
82	0x3f19e70e	0.60118186
83	0x3ebdf2d0	0.37099314
84	0x3efc5c3c	0.4928912
85	0x3f7dd488	0.9915242
86	0x3f55f8a8	0.83582544
87	0x3eed0760	0.4629469
88	0x3f7d7c9e	0.99018276
89	0x3f383597	0.7195677
90	0x3e6f6708	0.23379147
91	0x3d382dc0	0.044965506
92	0x3f4a62c0	0.7905693
93	0x3f780ae7	0.96891636
94	0x3e55b230	0.20868754
95	0x3f349291	0.7053614
96	0x3f0572fa	0.52128565
97	0x3ec94342	0.39309126
98	0x3eba6414	0.3640448
99	0x3f239c1c	0.6391008
100	0x3f1c37e9	0.6102281
101	0x3f5673cb	0.83770436
102	0x3f2edb85	0.6830371
103	0x3f3a3f51	0.72752863
104	0x3f70ea85	0.9410785
105	0x3f27db79	0.65569264
106	0x3f13002a	0.57422125
107	0x3ea2ccac	0.31796777
108	0x3f5ddfb4	0.8666947
109	0x3f12e739	0.5738407
110	0x3f528138	0.8222842
111	0x3f7b9a4e	0.98282325
112	0x3ec6beae	0.38817352
113	0x3f5a1ffa	0.8520504
114	0x3ecc02ea	0.39845973
115	0x3f7382d1	0.95121485
116	0x3f64bf8a	0.89354765
117	0x3ea43d90	0.32078218
118	0x3f049730	0.51793194
119	0x3e9033ea	0.28164607
120	0x3e987626	0.2977764
121	0x3ecc2b18	0.39876628
122	0x3efe4132	0.49659115
123	0x3ea6c29a	0.32570344
124	0x3ce56200	0.028000832
125	0x3e4a5410	0.1975863
126	0x3eea1fb0	0.457273
127	0x3eae46ec	0.34038484

threshold f4 [128]
0	0x3f5f129b	0.87137765
1	0x3f680bb2	0.90642846
2	0x3f518b44	0.8185313
3	0x3f38a683	0.72129077
4	0x3dd435d0	0.103618264
5	0x3f78ee0c	0.9723823
6	0x3d734820	0.059394956
7	0x3eabd698	0.3356216
8	0x3e17a580	0.14809227
9	0x3f2e0760	0.67980003
10	0x3dabe9e8	0.083942235
11	0x3e81cb1e	0.2535028
12	0x3e3ac590	0.18239427
13	0x3e4547e8	0.19265711
14	0x3e887e94	0.2665907
15	0x3f7dd38c	0.9915092
16	0x3eeb1724	0.45916092
17	0x3f27049e	0.6524142
18	0x3b6fbb00	0.0036579967
19	0x3f71ce85	0.9445575
20	0x3ec84120	0.39112186
21	0x3d2875f0	0.0411281
22	0x3f583660	0.8445797
23	0x3ebac778	0.36480308
24	0x3f743dab	0.954066
25	0x3e243bb0	0.16038394
26	0x3d1291f0	0.035783708
27	0x3dfeb758	0.12437314
28	0x3f377263	0.71658915
29	0x3ee34a58	0.44392657
30	0x3d16b180	0.03679037
31	0x3f17bbbe	0.59270847
32	0x3eefae9e	0.4681291
33	0x3f2e3e15	0.6806348
34	0x3e7b8e4c	0.24566
35	0x3e127d34	0.14305574
36	0x3f573e21	0.84079176
37	0x3e84d008	0.25939965
38	0x3f5a0a27	0.8517174
39	0x3f67c87c	0.9054029
40	0x3e19f10c	0.15033358
41	0x3e89f944	0.26947987
42	0x3f0f68a2	0.5601903
43	0x3cea0540	0.028566957
44	0x3f274f4e	0.65355384
45	0x3e9555a4	0.291669
46	0x3e8e7ecc	0.27831113
47	0x3de86130	0.11346662
48	0x3f3be17a	0.73390925
49	0x3e39bac0	0.18137646
50	0x3dcd83d0	0.10034907
51	0x3ebcada2	0.3685122
52	0x3e62f7f8	0.22164905
53	0x3c63c140	0.013901055
54	0x3f3395fa	0.7015072
55	0x3e9e99cc	0.30976713
56	0x3f59a8db	0.8502328
57	0x3f5a19f5	0.8519586
58	0x3e397620	0.18111467
59	0x3e5584a0	0.20851374
60	0x3ea5218a	0.3225215
61	0x3f4afa05	0.7928775
62	0x3ef7300e	0.4827885
63	0x3ea48b9c	0.32137764
64	0x3f4f4b25	0.80974036
65	0x3f796369	0.9741731
66	0x3f5ea14e	0.8696488
67	0x3df0f108	0.11764723
68	0x3ecad436	0.3961503
69	0x3ecee566	0.40409392
70	0x3f6d3c4d	0.92670137
71	0x3e773078	0.24139583
72	0x3e5a8eac	0.21343488
73	0x3f0200ae	0.5078229
74	0x3ec48812	0.38385063
75	0x3f307343	0.68925875
76	0x3f0f8f03	0.56077594
77	0x3e4e4f0c	0.20147341
78	0x3f5d1336	0.8635744
79	0x3f4fad61	0.8112393
80	0x3f1c07bf	0.6094932
81	0x3d424e30	0.047437847
82	0x3f3c2650	0.7349596
83	0x3f550d1c	0.8322313
84	0x3f23a2a5	0.6392005
85	0x3e9d0b80	0.30672836
86	0x3f0895a5	0.5335334
87	0x3e9da7ba	0.30792028
88	0x3f788192	0.9707271
89	0x3f7b994e	0.982808
90	0x3ee22ace	0.44173282
91	0x3e278718	0.16360128
92	0x3f4b4bdc	0.7941263
93	0x3f415434	0.7551911
94	0x3f43d98a	0.76503813
95	0x3dfd7d00	0.123773575
96	0x3f2b672e	0.66954315
97	0x3e92c07e	0.28662485
98	0x3d77e7b0	0.06052369
99	0x3e1a7b74	0.15086156
100	0x3f364292	0.7119533
101	0x3f2feba4	0.68718934
102	0x3d7a89d0	0.061166584
103	0x3f4895f8	0.78353834
104	0x3f621427	0.88312
105	0x3f612b1c	0.87956405
106	0x3f484636	0.78232133
107	0x3ed7d03a	0.42151052
108	0x3f55c4b7	0.8350329
109	0x3f643567	0.89143986
110	0x3f42b95a	0.76064074
111	0x3e0fbe6c	0.14037484
112	0x3ea6a778	0.32549644
113	0x3f65676a	0.8961092
114	0x3f61958c	0.88118815
115	0x3f51ac91	0.8190394
116	0x3e95008e	0.29101986
117	0x3ecd4cb6	0.40097588
118	0x3e028e1c	0.12749523
119	0x3e5c35f0	0.2150495
120	0x3f6241d3	0.8838169
121	0x3db785c0	0.08961058
122	0x3ec0bc66	0.37643737
123	0x3f1b2ba0	0.6061344
124	0x3e4ccb30	0.19999385
125	0x3f1dd63e	0.6165503
126	0x3ed6d8cc	0.41962278
127	0x3f3330b3	0.69996184

weight f4 [1, 128]
0	0x3cfe313b	0.031029334
1	0xbc886bb7	-0.016652925
2	0x3d311394	0.04323156
3	0xbd8672b0	-0.06564844
4	0xbd797790	-0.06090504
5	0x3cd77cf0	0.026304692
6	0x3d35ff1e	0.04443275
7	0xbd6c075b	-0.057624202
8	0xbd8dff59	-0.06933469
9	0xbccc9d90	-0.024977475
10	0x3d960aea	0.073263004
11	0x3d80869c	0.06275675
12	0xbd1a8a86	-0.037729762
13	0x3c464113	0.012100476
14	0xbb30ceed	-0.0026978806
15	0xbd8d72c8	-0.069066584
16	0xbc95451c	-0.01822143
17	0x3d8a721d	0.06760047
18	0x3d1e50b3	0.03865118
19	0x3d16e812	0.036842413
20	0x3d9e89fc	0.07741162
21	0x3d1e43af	0.038638767
22	0xbdb471a5	-0.088107385
23	0xbd53c137	-0.051697936
24	0xbd09a56b	-0.03360502
25	0xbd98bf5a	-0.074583724
26	0x3d684978	0.05671069
27	0x3b3f42e7	0.0029184164
28	0x3ccedb12	0.025250945
29	0xbc175826	-0.009237325
30	0x3cc9b65f	0.024623094
31	0xbcae9b9f	-0.02131444
32	0x3da40a8c	0.08009824
33	0x3d7c3c69	0.06158105
34	0xbcae3150	-0.021263748
35	0x3a3dc45b	0.0007239037
36	0xbc8b35df	-0.016993461
37	0xbd310eb1	-0.0432269
38	0xbdb0ebd6	-0.08638732
39	0x3cee95fe	0.029124256
40	0x3d6838a7	0.056694653
41	0xbd7de84b	-0.06198911
42	0x3d78fd2e	0.060788326
43	0xbd884e25	-0.0665553
44	0xbd98ec90	-0.07466996
45	0x3c0054f2	0.007832753
46	0x3b3e424f	0.0029031222
47	0xbcf765e0	-0.030199945
48	0xbc4b47ec	-0.012407284
49	0x3c671cc6	0.014105981
50	0xbd4ef7bb	-0.050529223
51	0x3d8f966c	0.070111126
52	0xbd5a8965	-0.053353686
53	0xbca65905	-0.02030612
54	0xbdb1633a	-0.08661504
55	0xbcdb612f	-0.02677974
56	0x3c2852de	0.010273663
57	0xbd0b26d6	-0.033972584
58	0xbd93ed64	-0.07223013
59	0xbce2c9ee	-0.027684178
60	0xbd51591a	-0.051110364
61	0x3d850dff	0.0649681
62	0x3d93958b	0.072062574
63	0xbb1626ad	-0.0022911236
64	0xbd112ab4	-0.035441115
65	0x3d508208	0.050905257
66	0xbc833157	-0.016014738
67	0x3d9052b3	0.070470236
68	0x3d6b36b8	0.05742523
69	0x3d8790df	0.06619429
70	0x3da780e3	0.0817888
71	0xbcb9bed5	-0.022674004
72	0xbda3f54a	-0.080057696
73	0xbcb6d2c2	-0.022317294
74	0xbdace590	-0.08442223
75	0x3c8e9e93	0.017409598
76	0xbca102ab	-0.019654592
77	0x3d62e697	0.05539569
78	0xbd8515ee	-0.064983234
79	0x3cee444a	0.029085297
80	0x3cc655a0	0.024210751
81	0x3d1e2e11	0.03861815
82	0xbd803822	-0.062607065
83	0xbaba81ba	-0.0014229335
84	0xbd4229ea	-0.047403254
85	0xbcaa7006	-0.02080537
86	0x3d8d0b22	0.06886889
87	0xbd0b5e8d	-0.034025718
88	0x3d3e8d87	0.04652169
89	0x3ca6840b	0.020326635
90	0x3ab8d248	0.0014100755
91	0x3d9b43b6	0.07581274
92	0x3b6c8415	0.003608947
93	0xbd7af408	-0.061267883
94	0x3d8acdcf	0.06777536
95	0x3d7a47ac	0.061103508
96	0xbd0b21c3	-0.033967745
97	0x3d766907	0.060158756
98	0xbc75fc0e	-0.015013708
99	0x3c226914	0.009912748
100	0x3bdd9b2d	0.006762883
101	0xbd96e18f	-0.07367241
102	0x3dadf00d	0.08493052
103	0x3d8776c4	0.066144496
104	0xbda103b6	-0.07862036
105	0xbdb039f8	-0.08604807
106	0x3daf1dfd	0.08550642
107	0x3c9d53f3	0.01920507
108	0xbc5ed741	-0.013601125
109	0xbcfa72a7	-0.030572249
110	0x3d8f8e5b	0.07009574
111	0x3d69fb0c	0.057124183
112	0xbdb363db	-0.0875928
113	0xbd9b7396	-0.07590406
114	0xbd348a25	-0.044077057
115	0xbda53ad4	-0.08067861
116	0xbc53cf28	-0.012927808
117	0x3d090761	0.033454303
118	0xbcad3d4b	-0.02114739
119	0xbd7b8cff	-0.06141376
120	0xbc8d8c54	-0.017278828
121	0xbca3e954	-0.02000872
122	0xbd57446f	-0.052555498
123	0x3c499c9b	0.012305404
124	0xbd96d3cf	-0.07364618
125	0x3ce8ec3d	0.02843296
126	0xbc4f59c1	-0.012655676
127	0xbcfae2b5	-0.03062568
